models/action_model.pth (torch, 57730 bytes, 12 tensors)

node_embedding.weight f4 [32, 11]
0	0xbe668e82	-0.225153
1	0x3e111142	0.1416674
2	0x3e86bc27	0.26315424
3	0xbea5631f	-0.32302186
4	0x3cb66c69	0.02226849
5	0x3e16ceed	0.14727373
6	0x3e8431b2	0.25819165
7	0x3f09c91c	0.53822494
8	0xbf20a366	-0.62749326
9	0x3f1ebb3b	0.6200444
10	0xbf0d3c68	-0.551703
11	0x3e936fa2	0.28796107
12	0xbe309e81	-0.17247964
13	0x3ee174d1	0.44034436
14	0x3c943395	0.018091002
15	0xbe9cc040	-0.30615425
16	0x3ea106d4	0.31450522
17	0xbe0603a7	-0.13087331
18	0xbee55a47	-0.4479544
19	0xbe84eafe	-0.25960535
20	0xbee9c13b	-0.45655236
21	0x3ee04719	0.43804243
22	0xbc011be6	-0.007880187
23	0x3ec2a4a9	0.3801625
24	0xbf1bf0c8	-0.6091428
25	0xbe39c6b7	-0.1814221
26	0x3ea8e3c1	0.32986262
27	0xbe674b23	-0.22587256
28	0xbea6dc5c	-0.32589996
29	0xbe3b61fb	-0.18299095
30	0x3e51f43f	0.20503329
31	0x3e8a76ef	0.27043864
32	0xbe10f887	-0.14157306
33	0xbf06880f	-0.5255136
34	0x3da339e7	0.07970028
35	0xbddc6af4	-0.10762587
36	0x3e784fa5	0.24249132
37	0x3e098f61	0.13433601
38	0xbe4d330a	-0.20039001
39	0xbdc233c4	-0.0948253
40	0x3f37664b	0.7164046
41	0xbce97599	-0.028498458
42	0x3f5b4fd5	0.8566869
43	0xbeabe9a1	-0.33576682
44	0xbe9368b9	-0.28790835
45	0x3ef23a11	0.47309926
46	0xbe1fbab9	-0.15598573
47	0x3ee026dd	0.4377965
48	0xbebb1805	-0.36541763
49	0x3da5954e	0.08085118
50	0xbedc73e4	-0.43057168
51	0x3c6c589d	0.014425424
52	0xbf149dea	-0.5805346
53	0x3f5f17a6	0.8714546
54	0xbef58247	-0.47950956
55	0x3e713ecf	0.23559116
56	0xbeb6a7a8	-0.35674787
57	0xbde1c5de	-0.11024068
58	0xbef92f68	-0.4866898
59	0x3eb3e039	0.35132006
60	0xbe1688e2	-0.14700654
61	0xbd485161	-0.048905734
62	0x3ef6693e	0.48127168
63	0x3e261056	0.16217169
64	0x3f6d449f	0.9268283
65	0xbeefbb02	-0.46822363
66	0xbd890031	-0.0668949
67	0x3e9034d4	0.28165305
68	0xbda0dba9	-0.07854397
69	0x3e9f8625	0.31157032
70	0xbe13db5a	-0.14439145
71	0x3e901d0d	0.28147164
72	0xbc135781	-0.0089930305
73	0x3e8d4a03	0.2759553
74	0x3e6c1be0	0.23057508
75	0x3f5a0a92	0.8517238
76	0xbec7818b	-0.3896602
77	0xbe32190f	-0.17392372
78	0x3da03f63	0.0782459
79	0x3eac8efa	0.33702832
80	0xbd19f4fc	-0.03758715
81	0xbef61ad2	-0.48067337
82	0x3cebb16d	0.028771127
83	0xbd3a4975	-0.04548021
84	0x3f3822d7	0.7192816
85	0xbe9d13a0	-0.30679035
86	0x3e1a5ae1	0.1507373
87	0xbe8a06ac	-0.26958215
88	0x3e56bef2	0.20971277
89	0x3f03351f	0.5125293
90	0x3ec93e11	0.39305165
91	0x3e2882a2	0.16456082
92	0x3e15c230	0.14624858
93	0x3e36f9ce	0.1786873
94	0xbebbe640	-0.36699104
95	0x3efd318a	0.49451858
96	0xbf076bed	-0.52899057
97	0x3ed7431f	0.42043397
98	0xbf3df6ff	-0.7420501
99	0x3ec7efd0	0.3905015
100	0xbc2e2706	-0.010629421
101	0x3d616336	0.055026256
102	0x3e71f38b	0.2362806
103	0xbe5b98c0	-0.21444988
104	0xbe9dcbb4	-0.30819476
105	0x3de09230	0.10965383
106	0xbf601d79	-0.8754497
107	0x3e65dbb5	0.22447093
108	0xbe1c97ab	-0.15292232
109	0x3ea87b4e	0.32906574
110	0xbecbbbf6	-0.3979184
111	0xbd8ac51f	-0.06775879
112	0xbe51d410	-0.20491052
113	0x3eb5ddbd	0.35520735
114	0xbd5e8f54	-0.054335907
115	0x3dfbcc84	0.12294868
116	0xbe152f0e	-0.14568731
117	0xbeed5f56	-0.46361798
118	0xbe519b63	-0.20469432
119	0xbdfe8eac	-0.12429556
120	0x3e9e95c4	0.30973637
121	0x3eeb9985	0.46015564
122	0x3e897de1	0.2685385
123	0xbe245dff	-0.16051482
124	0x3e4da2dd	0.20081659
125	0xbe760e81	-0.2402897
126	0xbed5b723	-0.41741285
127	0xbdf216e2	-0.11820771
128	0x3e648060	0.22314596
129	0xbea6410c	-0.32471502
130	0x3f010627	0.5040001
131	0xbeb52fe1	-0.3538809
132	0xbcbbb14a	-0.022911686
133	0x3f2561c4	0.64602304
134	0xbdd41b92	-0.10356821
135	0xbd4ed930	-0.050500095
136	0xbe22f304	-0.15913016
137	0xbe424011	-0.18969752
138	0xbe923d40	-0.28562355
139	0x3f33b109	0.7019201
140	0xbf0a9716	-0.5413679
141	0xbea96be5	-0.3309013
142	0x3f0d39fd	0.5516661
143	0xbebd160c	-0.36930883
144	0x3be0dded	0.006862393
145	0xbec218ac	-0.37909448
146	0x3ef2cb1c	0.47420585
147	0xbeb548d4	-0.35407126
148	0xbeb76f74	-0.3582722
149	0x3e941851	0.28924802
150	0xbea7474d	-0.32671586
151	0xbed85080	-0.42248917
152	0xbf6974e6	-0.91194
153	0x3f0865b0	0.5328016
154	0x3e91030c	0.28322637
155	0xbec0ae0f	-0.37632796
156	0xbea05bc7	-0.3132002
157	0xbe1684f1	-0.1469915
158	0x3e47124e	0.19440576
159	0xbe97dc93	-0.29660472
160	0x3e1270a9	0.14300789
161	0xbe091970	-0.1338861
162	0x3ead7b59	0.3388317
163	0x3e761789	0.24032415
164	0xbe36119f	-0.1778016
165	0x3eaaf62c	0.3339094
166	0xbc99c546	-0.018770825
167	0xbd738b39	-0.059458945
168	0x3e8248a4	0.25446045
169	0xbec34a20	-0.3814249
170	0x3e7a89b2	0.24466589
171	0x3e34a94c	0.17642707
172	0xbebe45e6	-0.37162703
173	0x3d557e14	0.05212219
174	0xbf2e55a4	-0.6809943
175	0x3f22adbd	0.63546354
176	0x3f0b6657	0.54453033
177	0x3f0118cb	0.50428456
178	0xbe8591af	-0.2608771
179	0x3e66c100	0.22534561
180	0xbebb7d59	-0.3661907
181	0x3ee43bd1	0.44576886
182	0xbd320ae5	-0.04346742
183	0xbda8e1d3	-0.082461976
184	0xbf0efbdf	-0.55853075
185	0xbf1a39fe	-0.6024474
186	0x3f06d0bc	0.52662253
187	0x3e84ffa1	0.2597628
188	0x3f1e1c3e	0.61761844
189	0x3daca82d	0.084305145
190	0x3eb55191	0.35413793
191	0xbd217868	-0.03942147
192	0xbee5fcf7	-0.4491956
193	0x3d9a0f9a	0.07522507
194	0xbf644845	-0.89172775
195	0x3ea137b3	0.31487808
196	0x3e8d77c7	0.27630445
197	0xbdfa77db	-0.12229892
198	0xbef71967	-0.48261568
199	0xbda6c2a9	-0.08142597
200	0xbec9d6eb	-0.39421782
201	0xbf08212e	-0.5317563
202	0x3eabe70d	0.33574715
203	0x3e99f7a4	0.30071747
204	0x3df5df15	0.1200544
205	0xbed1c4b7	-0.40970394
206	0x3ecc9873	0.3996006
207	0xbf572fba	-0.840572
208	0x3ea7ee20	0.32798862
209	0xbea85141	-0.32874492
210	0x3ef883fe	0.48538202
211	0xbd9f2c67	-0.07772141
212	0x3c3d81a1	0.0115665505
213	0x3eb73215	0.35780397
214	0xbe67683b	-0.22598355
215	0x3e441201	0.19147493
216	0x3f2c1cad	0.67231256
217	0x3debc608	0.11512381
218	0xbf0b54c6	-0.5442623
219	0x3ec20d3d	0.37900725
220	0xbc7fa5b7	-0.015603474
221	0xbe8fa593	-0.2805601
222	0xbdf78045	-0.12085012
223	0xbe223a41	-0.15842535
224	0xbc7081b2	-0.014679359
225	0x3ec42c5a	0.38315088
226	0xbe080ab3	-0.13285331
227	0x3cb02f3b	0.021506896
228	0x3d8cc7e7	0.06874066
229	0x3f3ab799	0.729364
230	0xbf3ce9f8	-0.7379451
231	0x3e0b86fc	0.13625711
232	0x3e82699c	0.254712
233	0xbddc56e0	-0.107587576
234	0x3ed6162a	0.41813785
235	0x3ddef3ba	0.10886331
236	0x3e19d4f6	0.15022644
237	0xbe09e2f9	-0.1346549
238	0xbef21e3b	-0.4728869
239	0xbd8b745b	-0.068093024
240	0x3f4234e0	0.7586193
241	0xbec95209	-0.393204
242	0x3e8d6db8	0.2762277
243	0xbd8a9104	-0.06765941
244	0xbe25bfb8	-0.16186416
245	0xbd350010	-0.044189513
246	0xbec9aa66	-0.39387816
247	0x3dec7751	0.11546195
248	0x3e7be435	0.24598773
249	0x3ee1c819	0.44097975
250	0xbe6d08c9	-0.23147883
251	0xbef6b8fe	-0.48188013
252	0x3ec4bda7	0.38425943
253	0xbeadae55	-0.33922067
254	0xbef7a097	-0.48364708
255	0x3e0354ca	0.12825313

node_embedding.bias f4 [32]
0	0xbebd3862	-0.3695708
1	0xbe8ac7e2	-0.27105623
2	0x3f0e29a8	0.5553231
3	0x3e249a58	0.16074502
4	0x3d8b4345	0.0679994
5	0x3ee0d2d4	0.4391085
6	0x3ed6466e	0.4185061
7	0xbeccf1f2	-0.4002834
8	0x3e312399	0.17298736
9	0xbd81f0d5	-0.06344763
10	0xbebe38a8	-0.371526
11	0xbda49b8a	-0.08037479
12	0xbe173c6e	-0.14769146
13	0xbb975024	-0.004617708
14	0x3eceff80	0.40429306
15	0xbe8cc3f8	-0.27493262
16	0xbe60fe74	-0.21972066
17	0xbd13bf4b	-0.036071103
18	0xbc485876	-0.012228122
19	0x3e862d7e	0.26206583
20	0x3ea7d1c0	0.32777214
21	0x3e816a3d	0.25276366
22	0xbe39c969	-0.18143238
23	0xbe0fe3e3	-0.14051776
24	0xbed5dae5	-0.41768566
25	0xbed75c94	-0.4206282
26	0xbe95fb99	-0.29293516
27	0xbe7195eb	-0.23592345
28	0xbdf9b703	-0.1219311
29	0xba817381	-0.0009876342
30	0x3eca55e0	0.39518642
31	0x3ecb610e	0.39722484

conv1.weight f4 [11, 32, 16]
0	0x3ddde20b	0.1083413
1	0x3cacdb2f	0.021100609
2	0x3d9b6513	0.07587638
3	0x3eb499c2	0.35273558
4	0x3d3931b2	0.04521341
5	0xbe893aea	-0.2680276
6	0xbd5276ee	-0.05138295
7	0xbeb50252	-0.35353333
8	0xbe98fbd9	-0.29879645
9	0x3da4cf4b	0.080473505
10	0xbe029572	-0.12752321
11	0x3cf8c3ce	0.030366804
12	0x3c7e65f3	0.015527236
13	0xbe693dfc	-0.22777551
14	0x3ddb1257	0.106968574
15	0x3e100b49	0.14066805
16	0xbeb10f44	-0.3458196
17	0xbcb3cafe	-0.02194738
18	0x3ea71e5a	0.32640344
19	0xbc9ec69e	-0.019381817
20	0xbdcad79f	-0.09904408
21	0xbdef514d	-0.11685429
22	0xbe10829c	-0.14112324
23	0xbea5fd54	-0.32419837
24	0xbe4be3dc	-0.1991114
25	0xbd6b02ad	-0.0573756
26	0xbe8bd7be	-0.27313036
27	0x3e168390	0.14698625
28	0x3e4a4d6e	0.197561
29	0x3d0ecf69	0.03486577
30	0xbe7d6306	-0.24744806
31	0x3e9a41be	0.30128282
32	0xbcfa9284	-0.030587442
33	0x3ddf43b5	0.10901586
34	0x3eafe1ee	0.34352058
35	0x3e3618c4	0.17782885
36	0x3e92c056	0.28662366
37	0xbe7e6dba	-0.24846545
38	0xbeb16cd4	-0.34653342
39	0x3e9c17d2	0.30486923
40	0xbdddd622	-0.10831858
41	0xbe8eb4df	-0.2787237
42	0xbe2ebdf3	-0.17064647
43	0xbe2a5c17	-0.16636692
44	0xbdb2ec1a	-0.08736439
45	0xbe90dc90	-0.28293276
46	0xbd11f555	-0.035634357
47	0xbe18a1c8	-0.14905465
48	0xbeb1a42f	-0.34695575
49	0x3e823fc9	0.2543929
50	0xbe810eaf	-0.25206515
51	0x3db7ab87	0.08968263
52	0xbdb719b6	-0.08940451
53	0xbe274b5e	-0.16337344
54	0x3e3a7f13	0.18212537
55	0x3eade44d	0.33963242
56	0xbdc46b67	-0.09590798
57	0x3e247455	0.16060002
58	0xbe044f06	-0.1292077
59	0x3c4fb098	0.012676381
60	0xbe209ba4	-0.15684372
61	0x3d2b052e	0.041752987
62	0x3dec44e6	0.11536579
63	0x3dc47a4b	0.09593638
64	0x3dda7c09	0.10668189
65	0x3e902c24	0.28158677
66	0x3e9f1c1b	0.3107613
67	0x3e8312a1	0.2560015
68	0x3ce3b8fa	0.027798165
69	0x3e9f733b	0.311426
70	0x3d8b9916	0.06816308
71	0x3e20e621	0.15712787
72	0xbeb4a87c	-0.35284793
73	0x3cf2ca99	0.029637622
74	0x3d967985	0.07347397
75	0x3e809206	0.25111407
76	0x3df94485	0.12171272
77	0xbe1f23d6	-0.15541014
78	0xbd4061a2	-0.04696811
79	0xbe187155	-0.14886983
80	0xbdc3a5c4	-0.09553102
81	0x3e561fde	0.20910594
82	0xbdd4df65	-0.103941716
83	0xbe83e38d	-0.25759545
84	0xbe780096	-0.24218974
85	0xbd3b8d4d	-0.04578905
86	0xbe2702a6	-0.16309604
87	0xba9b09e7	-0.0011828513
88	0xbcf6d178	-0.03012918
89	0x3d60416d	0.054749895
90	0x3dbddc93	0.09270587
91	0xbd31b9f2	-0.043390222
92	0x3e8fa06b	0.28052077
93	0x3eb4f6b1	0.3534446
94	0x3ea694a9	0.32535294
95	0xbdac51c9	-0.08414037
96	0x3d3edcfd	0.04659747
97	0x3d1e08ac	0.03858249
98	0x3e865f05	0.2624437
99	0xbe68298a	-0.22672096
100	0xbe2a19c2	-0.16611388
101	0x3e5468c9	0.20743097
102	0xbe0584ca	-0.13038936
103	0xbd70aa15	-0.058755953
104	0x3d6a9234	0.057268336
105	0x3e9d1028	0.3067639
106	0x3d4fb5e6	0.05071058
107	0xbe031d60	-0.12804174
108	0x3e863934	0.26215518
109	0x3e8cc47f	0.27493665
110	0xbe6f2a25	-0.2335592
111	0xbea2804a	-0.31738502
112	0x3dabc5dd	0.08387349
113	0x3e1cc206	0.15308389
114	0xbde09f72	-0.10967912
115	0xbcc07bcc	-0.023496531
116	0xbd2533ca	-0.040332593
117	0xbd345547	-0.04402664
118	0xbe19c9b7	-0.15018354
119	0xbdd893bc	-0.10575053
120	0x3ea77766	0.3270828
121	0x3dbb3955	0.091417946
122	0xbea4c0ce	-0.32178348
123	0xbcb8213d	-0.022476787
124	0xbd8e7826	-0.0695651
125	0xbe1cc923	-0.15311103
126	0xbe86f049	-0.26355198
127	0xbc486a9b	-0.012232448
128	0xbd82af47	-0.06381088
129	0xbc965b01	-0.01835394
130	0xbe6815ff	-0.22664641
131	0x3ea6c31a	0.32570726
132	0xbda08188	-0.07837206
133	0xbe9109cd	-0.2832779
134	0xbe697ac6	-0.2280074
135	0x3d8f7c35	0.070061125
136	0xbc9983d8	-0.018739626
137	0x3e269c18	0.16270483
138	0xbd518c15	-0.051158983
139	0xbe8b1991	-0.27167943
140	0xbea0db98	-0.31417537
141	0x3e5e4a5f	0.21708058
142	0x3ab26807	0.0013611325
143	0x3c0a7140	0.0084498525
144	0xbdb13e01	-0.086544044
145	0x3d05b518	0.032643408
146	0xbdf92b10	-0.12166417
147	0xbe9c8465	-0.3056976
148	0x3e3e5e9e	0.18590781
149	0xbd05f713	-0.03270633
150	0xbd25341a	-0.04033289
151	0x3e7d7b30	0.24754024
152	0xbe7e419f	-0.2482972
153	0x3e77c347	0.24195586
154	0xbe55b5a0	-0.20870066
155	0x3e4fc999	0.20291747
156	0xbe6e410b	-0.23267
157	0x3ea4eba6	0.32211035
158	0xbdd3ad9d	-0.103358485
159	0xbe319089	-0.17340292
160	0x3e4b6ba1	0.19865276
161	0xbe9f2a15	-0.31086794
162	0x3d90eafa	0.07076068
163	0xbd51a217	-0.05117997
164	0xbeaf1887	-0.341984
165	0xbe4e0b3a	-0.2012147
166	0xbdffe6db	-0.12495204
167	0xbe816ad6	-0.25276822
168	0xbd9ef23d	-0.07761047
169	0x3c8befe3	0.01708216
170	0x3e992e12	0.2991796
171	0x3eac0ac6	0.3360197
172	0xbd1b9a60	-0.03798902
173	0x3eac2b46	0.33626765
174	0xbeabb597	-0.3353698
175	0x3e59244b	0.21205251
176	0x3e751cd8	0.23936784
177	0x3bcb220c	0.006199127
178	0xbe87f3e9	-0.26553276
179	0xbe606f79	-0.21917523
180	0x3e4dbcaf	0.20091508
181	0xbe837ca0	-0.2568102
182	0x3e2b752d	0.16743918
183	0xbdedf337	-0.11618655
184	0x3d6a2757	0.057166424
185	0xbeae5edf	-0.34056756
186	0x3e60ab78	0.2194041
187	0x3dcfdb7c	0.10149285
188	0x3da83771	0.082136996
189	0x3c816ec2	0.015799884
190	0x3e929f25	0.28637043
191	0xbe5ba10e	-0.21448156
192	0x3e436e88	0.19085133
193	0xbe8f6abf	-0.28011128
194	0xbea22179	-0.31666163
195	0xbea7c3a2	-0.32766443
196	0xbe2f63f4	-0.17127973
197	0xbcc9522f	-0.024575321
198	0x3bccdaed	0.006251684
199	0x3e99cc3f	0.3003864
200	0x3ea66c51	0.32504514
201	0xbea40ea5	-0.32042423
202	0xbde40ede	-0.11135648
203	0x3ea8b4b6	0.32950372
204	0xbea8d0ab	-0.329717
205	0xbd0aa6f3	-0.03385062
206	0xbc8f8a0a	-0.017521877
207	0x3c87bd42	0.016569737
208	0x3c7ccd98	0.015429877
209	0x3e9dd3df	0.30825707
210	0xbe952f61	-0.2913771
211	0x3ea7e00b	0.3278812
212	0x3e1c33f6	0.15254197
213	0x3e1c900a	0.15289322
214	0xbe4e0181	-0.20117761
215	0xbc6e9d8a	-0.014563927
216	0xbeaf36dc	-0.34221542
217	0x3e9cec92	0.3064924
218	0xbdb83f0c	-0.089964
219	0x3ddbfeb1	0.10741938
220	0xbd18d0fe	-0.037308685
221	0x3d0c830d	0.034304667
222	0x3c14865e	0.009065239
223	0x3e888940	0.26667213
224	0xbe6a0b9f	-0.22855996
225	0x3eadfe31	0.33982995
226	0x3e8c7d4a	0.27439338
227	0xbeb0a52e	-0.34501022
228	0xbc59f790	-0.013303652
229	0xbd852fac	-0.06503233
230	0x3d3f640c	0.04672627
231	0x3d6c4f5f	0.05769288
232	0xbdd05bbd	-0.10173748
233	0x3ea0a0c9	0.3137267
234	0x3e3e51f7	0.18585955
235	0x3e4812d9	0.1953844
236	0x3e725444	0.23664957
237	0xbd3ea4f3	-0.046544027
238	0xbd305ff3	-0.043060254
239	0x3df803e4	0.12110117
240	0xbdde6a56	-0.10860126
241	0xbea7dcd3	-0.32785663
242	0xbea5bed8	-0.32372165
243	0xbe091db0	-0.13390231
244	0xbd3f75db	-0.046743255
245	0xbd017c48	-0.031612664
246	0xbdb4c292	-0.08826174
247	0x3e8e2a4e	0.2776665
248	0x3eab8342	0.3349858
249	0xbcf7a693	-0.030230796
250	0xbe261a3e	-0.16220948
251	0x3d900e72	0.07034005
252	0x3e730fd6	0.2373651
253	0xbd69c990	-0.05707699
254	0xbe9d5955	-0.30732217
255	0xbcb3867e	-0.021914717

conv1.root f4 [32, 16]
0	0xbde89fc3	-0.11358597
1	0x3e804d76	0.25059098
2	0x3e13827e	0.14405248
3	0x3edf8d24	0.4366237
4	0xbe645e3e	-0.22301576
5	0xbe7ec61f	-0.24880265
6	0xbd938448	-0.07202965
7	0xbeed08c5	-0.46295753
8	0xbe9273bd	-0.28603926
9	0x3e80a925	0.25129047
10	0x3e1afdeb	0.15135925
11	0xbe88f20d	-0.2674717
12	0xbf139376	-0.5764688
13	0xbededc2b	-0.4352735
14	0x3ece36ce	0.40276188
15	0x3eaa06ce	0.33208317
16	0xbe21a53b	-0.15785687
17	0xbdc62c1e	-0.096763834
18	0xbe812227	-0.2522137
19	0xbeb0c717	-0.34526893
20	0x3bccc00c	0.0062484797
21	0xbec2fe76	-0.38084763
22	0xbd1166fa	-0.035498597
23	0x3e4f8c4d	0.20268364
24	0xbe3c7279	-0.18403043
25	0xba9bc118	-0.0011883108
26	0xbe051b89	-0.12998785
27	0x3e9d8d53	0.30771884
28	0xbf19d77b	-0.6009442
29	0x3d9519b7	0.07280295
30	0xbe030f0f	-0.12798713
31	0xbe189122	-0.14899114
32	0xbe0ba38b	-0.13636605
33	0xbde4cea1	-0.11172224
34	0x3eacc3da	0.33743173
35	0x3d432f37	0.04765245
36	0xbd7f4e0b	-0.062330287
37	0x3ebdb55e	0.37052435
38	0x3eb3edd3	0.35142383
39	0x3db7f5a7	0.08982401
40	0x3e04a4bb	0.12953465
41	0xbe828160	-0.2548933
42	0x3ea022e4	0.3127662
43	0xbe639b8e	-0.22227308
44	0x3f1587bc	0.5841024
45	0x3e975d9c	0.29563606
46	0xbe8765c2	-0.26444823
47	0xbe27dba9	-0.16392387
48	0x3e64676c	0.22305077
49	0x3e1f29bb	0.15543263
50	0x3f1f638d	0.6226128
51	0x3ed973e4	0.4247123
52	0xbe0b4cd6	-0.1360353
53	0x3f4c4290	0.79789066
54	0x3f197736	0.59947526
55	0xbeb53ca8	-0.3539784
56	0xbec49880	-0.38397598
57	0x3f417621	0.75570875
58	0x3e682c26	0.22673091
59	0xbee5e0bc	-0.4489802
60	0x3df7de1a	0.121029094
61	0xbda16678	-0.078808725
62	0x3f4296c3	0.76011294
63	0x3f016f6d	0.5056065
64	0x3e4a7f97	0.19775234
65	0x3ed310d7	0.41223785
66	0x3f0e18c8	0.55506563
67	0x3ee35c8f	0.44406554
68	0xbe8347ba	-0.2564066
69	0x3e9f7959	0.31147268
70	0x3f178f05	0.59202605
71	0x3df4a780	0.119460106
72	0xbd12d0d4	-0.035843685
73	0x3b2c19c3	0.0026260472
74	0x3e7e2a9f	0.24820946
75	0x3ed5fe7c	0.4179572
76	0xbec7a481	-0.38992694
77	0xbec3a3af	-0.38210818
78	0xbd9f07d8	-0.07765168
79	0xbe40d42a	-0.18830934
80	0xbe5f8c50	-0.21830869
81	0x3e35a6b1	0.17739369
82	0x3ee9f064	0.45691216
83	0x3e901e1f	0.2814798
84	0xbd86ddd9	-0.06585283
85	0x3bcb8686	0.006211105
86	0xbd0e1b9b	-0.034694295
87	0x3d137b27	0.03600612
88	0x3e87d608	0.2653048
89	0xbc3b6da0	-0.011439711
90	0x3d9e5a5f	0.07732081
91	0x3cf3adbe	0.029745933
92	0x3f0d6fba	0.55248606
93	0x3ebd5798	0.3698089
94	0x3eb2fe88	0.34959817
95	0x3e7a8c3b	0.24467556
96	0xbec8c12f	-0.39209887
97	0x3e7c4b6b	0.24638145
98	0x3f0dfeea	0.55467093
99	0x3b3072ca	0.0026923888
100	0x3ea347ad	0.31890622
101	0x3ec343ab	0.38137564
102	0x3eba47f6	0.36383027
103	0x3e80e84e	0.25177234
104	0x3ec9d556	0.39420575
105	0x3e636f0a	0.22210327
106	0xbdf128d5	-0.11775366
107	0xbc3e44e3	-0.011613104
108	0x3d83f3ef	0.06443011
109	0xbe1a19b9	-0.15048875
110	0x3ed2d8d3	0.4118105
111	0x3e83f791	0.25774816
112	0x3e90c600	0.28276062
113	0xbe1d5604	-0.15364844
114	0x3d943888	0.07237345
115	0xbcfb9cf1	-0.030714484
116	0xbeec2daa	-0.4612859
117	0xbe201513	-0.15633039
118	0x3dc4d507	0.09610944
119	0x3d290031	0.04125995
120	0x3df6eec7	0.12057262
121	0x3eb68feb	0.35656676
122	0xbd445f5a	-0.047942497
123	0xbc8a851e	-0.016909178
124	0xbec5d1b0	-0.3863654
125	0xbeec1456	-0.46109265
126	0x3ed0a694	0.4075209
127	0x3e6bab0a	0.23014465
128	0x3e828abf	0.2549648
129	0x3e197d8b	0.14989297
130	0x3eb7f111	0.35926107
131	0x3f3db5c9	0.7410551
132	0x3d3e4f77	0.046462502
133	0x3dbaf63f	0.09128999
134	0x3e91100c	0.28332555
135	0xbea8fc7a	-0.33005124
136	0x3e405ebf	0.18786143
137	0x3e92d9d1	0.28681806
138	0x3e72cbed	0.23710604
139	0x3e925763	0.28582296
140	0xbe579666	-0.21053466
141	0x3d53bdd3	0.051694702
142	0x3ea68486	0.32522982
143	0x3eb613b9	0.35561922
144	0xbea5f370	-0.3241229
145	0x3cc91044	0.024543889
146	0xbece47fb	-0.40289292
147	0xbdad7cb3	-0.0847105
148	0xbd9b50b4	-0.07583752
149	0xbe1f0a86	-0.15531358
150	0xbecba30f	-0.3977284
151	0xbdb3e1b8	-0.08783287
152	0x3da05525	0.0782874
153	0xbf591c10	-0.84808445
154	0xbd8e5bc1	-0.069510944
155	0xbf0e16cc	-0.55503535
156	0xbc6fba74	-0.014631856
157	0xbe3ecf9d	-0.18633886
158	0xbf393083	-0.7233965
159	0xbdbe174a	-0.09281786
160	0x3e5524a4	0.20814759
161	0xbb96054b	-0.0045782677
162	0xbe1ab405	-0.15107735
163	0x3e158dba	0.14604846
164	0x3e1babd5	0.15202267
165	0x3e52ee3c	0.20598692
166	0x3e55d221	0.20880939
167	0x3dd6a353	0.104803704
168	0xbbe5c96a	-0.007012536
169	0x3d83d16e	0.0643643
170	0xbec8b4df	-0.39200494
171	0x3db49cc6	0.08818965
172	0xbebaa645	-0.3645498
173	0xbec1a70e	-0.37822765
174	0xbecf55b0	-0.40495062
175	0xbe9651f7	-0.2935941
176	0x3d241005	0.04005434
177	0xbdc1c39a	-0.09461136
178	0x3eea68fb	0.4578322
179	0x3eb4e0ea	0.35327846
180	0xbea12d88	-0.3148005
181	0x3c492873	0.01227771
182	0xbea2011a	-0.31641465
183	0xbe98c7ad	-0.2983984
184	0xbeb301ca	-0.34962302
185	0xbeb48ad1	-0.3526216
186	0x3ecb90c6	0.3975889
187	0xbc7dfa8d	-0.0155016305
188	0xbe0d22fa	-0.13782874
189	0x3e1331ce	0.14374468
190	0xbde7d7b0	-0.11320436
191	0xbe4e179b	-0.20126192
192	0xbe5612ed	-0.20905657
193	0xbdd261af	-0.10272538
194	0xbe82a979	-0.25519922
195	0xbebc2264	-0.36744988
196	0xbecc693f	-0.39924046
197	0x3eb7a3c3	0.35867128
198	0x3e94abde	0.29037374
199	0xbeb887af	-0.36041018
200	0x3d8c6a3b	0.06856199
201	0x3e8f8e1a	0.28038102
202	0xbdd96512	-0.10614981
203	0x3e1953c2	0.14973357
204	0xbea93243	-0.3304616
205	0xbd94a36b	-0.07257732
206	0x3e4e7ca8	0.2016474
207	0xbdc576eb	-0.096418224
208	0xbd3b7cc3	-0.04577328
209	0xbf0a0cd5	-0.5392583
210	0xbf70623a	-0.9389988
211	0xbed92626	-0.42411917
212	0xbc9a6ec9	-0.018851655
213	0xbe429a7f	-0.19004248
214	0xb8410305	-4.6017598e-05
215	0xbee28e9b	-0.44249424
216	0xbf1a30cc	-0.6023071
217	0xbef23fb4	-0.47314227
218	0xbe5ae190	-0.21375108
219	0x3c0143c7	0.0078896945
220	0xbf2ee1e7	-0.6831345
221	0xbf02c2cc	-0.51078486
222	0xbe74fa3f	-0.23923586
223	0xbe76601b	-0.24060099
224	0xbd57f318	-0.052722067
225	0x3d49dd1a	0.049283125
226	0xbd5fc042	-0.05462671
227	0x3ec4fe31	0.38475183
228	0x3dade8a7	0.084916405
229	0x3e270b55	0.16312917
230	0x3dec5326	0.11539297
231	0xbe011d32	-0.12608793
232	0x3ee94601	0.4556122
233	0xbe9466d2	-0.28984696
234	0x3d8f5ed9	0.07000513
235	0xbe3e427d	-0.18580051
236	0x3df9d9f2	0.12199773
237	0x3f017733	0.5057251
238	0xbe8f941b	-0.28042683
239	0x3d02d3eb	0.031940382
240	0xbe61ea8b	-0.22062127
241	0xbe398729	-0.18117966
242	0xbf00ad9c	-0.50264907
243	0xbf196f36	-0.5993532
244	0xbc8e6ba1	-0.017385306
245	0x3e17d03d	0.1482553
246	0xbe94b25c	-0.29042327
247	0xbe6ec7fd	-0.23318477
248	0x3c950d95	0.018194953
249	0x3d895767	0.06706124
250	0x3e4fc23c	0.20288938
251	0x3e9dd220	0.30824375
252	0xbeb885d0	-0.3603959
253	0x3dfa7498	0.1222927
254	0xbebbfd82	-0.3671685
255	0xbe57c8d9	-0.21072711

conv1.bias f4 [16]
0	0xbd09f04b	-0.033676427
1	0x3da7050e	0.08155261
2	0x3e1f78da	0.15573445
3	0x3c78d82d	0.015188259
4	0x3de08ecd	0.10964737
5	0x3d7c7c7d	0.06164216
6	0x3d96fa69	0.07371981
7	0x3d6faba3	0.058513295
8	0x3dd232cf	0.10263597
9	0x3dd92e41	0.10604525
10	0x3d523ccc	0.05132751
11	0x3cec06a0	0.028811753
12	0x3e33130d	0.17487736
13	0x3dd9e8f4	0.106401354
14	0x3d884dcd	0.06655464
15	0x3d977fcf	0.073974244

conv2.weight f4 [11, 16, 32]
0	0xbe8f23f8	-0.2795713
1	0x3eaba681	0.3352547
2	0xbe9e581a	-0.3092659
3	0xbe61740b	-0.22016923
4	0x3e385550	0.18001294
5	0x3e56b2e9	0.20966686
6	0xbe49e201	-0.1971512
7	0x3e374a31	0.17899396
8	0xbe5baaad	-0.21451826
9	0xbe69388d	-0.22775479
10	0x3ead8303	0.33889017
11	0x3d8c1e5b	0.06841727
12	0x3e764acf	0.24051975
13	0x3e65fedf	0.22460507
14	0xbe8a05cf	-0.26957557
15	0xbe4ec25b	-0.20191328
16	0x3e381d21	0.17979862
17	0x3e93e2b1	0.2888389
18	0x3dcb0667	0.099133305
19	0x3e5d5715	0.2161525
20	0xbe330e65	-0.1748596
21	0x3db8baf8	0.090200365
22	0xbe3a2527	-0.18178235
23	0x3e3e4425	0.18580683
24	0xbe8ed192	-0.27894264
25	0xbdfb1d60	-0.12261462
26	0xbbb75da3	-0.005595879
27	0x3d04960e	0.032369666
28	0xbe6d1f04	-0.23156363
29	0xbdb9851d	-0.090585925
30	0x3b9ba084	0.0047493596
31	0xbd30b9c0	-0.043145895
32	0x3e9be6a4	0.30449402
33	0xbe20674b	-0.15664403
34	0xbcf0e147	-0.029404296
35	0xbd2bcac5	-0.041941423
36	0x3d929474	0.071572214
37	0x3e9fdff7	0.3122556
38	0xbe160391	-0.14649798
39	0xbcf566d0	-0.029956251
40	0x3e9315fd	0.28727713
41	0x3dd558c6	0.10417323
42	0xbd21c366	-0.039492987
43	0x3ea316c1	0.31853297
44	0xbe5319ce	-0.20615312
45	0xbe8a9452	-0.27066284
46	0x3d5d77e9	0.054069433
47	0x3e5a4b50	0.21317792
48	0x3d46bc82	0.04851962
49	0xbdbd4f2d	-0.09243617
50	0xbe5c80be	-0.21533486
51	0x3ca21276	0.019784193
52	0x3ead4735	0.3384339
53	0x3e9ec934	0.3101288
54	0x3e348288	0.17627919
55	0x3e4128fe	0.18863294
56	0x3c2555a5	0.01009122
57	0x3e5e8622	0.21730855
58	0xbe981de8	-0.29710317
59	0x3e7e8301	0.24854662
60	0x3dea7a2f	0.11449086
61	0x3e265467	0.16243134
62	0x3e5ead83	0.21745877
63	0xbe276f28	-0.16350996
64	0xbe713c00	-0.23558044
65	0xbe4eb0fa	-0.20184699
66	0xbdadc3c7	-0.08484607
67	0x3e0cecbb	0.1376218
68	0xbe8b1c25	-0.2716991
69	0xbe9f1bb1	-0.31075814
70	0xbce123eb	-0.027482947
71	0xbe85d210	-0.26136827
72	0xbe07c9ef	-0.13260625
73	0x3e1e4cc1	0.15458967
74	0xbe15b478	-0.14619625
75	0xbd101e45	-0.035185117
76	0x3e839bfb	0.2570494
77	0x3e66413a	0.2248582
78	0x3e2198d4	0.15780956
79	0x3de73e57	0.11291187
80	0x3df434b9	0.119241185
81	0x3d846839	0.064651914
82	0xbe98a84d	-0.29815903
83	0xbe9bdf8e	-0.30443996
84	0x3e77e57c	0.24208635
85	0xbda38ae8	-0.07985479
86	0x3d52ea74	0.051493123
87	0x3e963bef	0.293426
88	0x3eac06f8	0.33599067
89	0x3d2250ff	0.039628025
90	0xbe4b9b48	-0.19883454
91	0x3dcca5c3	0.09992554
92	0xbbe796a9	-0.0070675206
93	0x3e99d61a	0.3004616
94	0x3eae8651	0.3408685
95	0x3e8b4f6d	0.27209035
96	0x3db532d8	0.08847588
97	0x3e12154c	0.14265937
98	0xbe9a6748	-0.30156922
99	0x3bde5416	0.006784926
100	0x3e1abe71	0.1511171
101	0xbe40f09a	-0.18841782
102	0xbc9b150a	-0.01893093
103	0xbe2cbe50	-0.16869473
104	0xbe916caf	-0.28403232
105	0xbeaac01f	-0.33349702
106	0x3e56b1b8	0.20966232
107	0xbead9ee6	-0.33910292
108	0xbe2579af	-0.161597
109	0xbe157110	-0.14593911
110	0xbdac10ff	-0.08401679
111	0xbeb1ca5a	-0.34724694
112	0xbe68fed8	-0.22753465
113	0x3d9ce5ad	0.07660995
114	0x3ea4c1e7	0.32179186
115	0x3e830c93	0.2559553
116	0x3e768cdc	0.24077171
117	0x3e9ef31f	0.31044862
118	0x3e907c2e	0.28219742
119	0xbc25fce0	-0.010131091
120	0xbe9137eb	-0.28362975
121	0x3dcf4425	0.101204194
122	0xbe3ad213	-0.182442
123	0x3dd8656b	0.10566219
124	0xbd889778	-0.06669515
125	0x3da3afbe	0.079925045
126	0xbeaf7d15	-0.34275118
127	0xbe987fa7	-0.2978489
128	0xbca54150	-0.020172745
129	0x3d91377a	0.070906594
130	0x3eaf3260	0.3421812
131	0x3eac3bde	0.33639425
132	0x3e7a3a73	0.24436359
133	0xbeb117e7	-0.3458855
134	0xbe38575e	-0.18002078
135	0x3e621c5b	0.22081129
136	0x3ea2c49f	0.31790635
137	0x3da6ddde	0.081477866
138	0xbe38ccbf	-0.18046854
139	0x3e80f49c	0.25186622
140	0xbea3ce8b	-0.31993517
141	0xbea91bb0	-0.33028936
142	0xbe697603	-0.22798924
143	0x3e30bd36	0.17259678
144	0xbd9e601c	-0.07733175
145	0x3d8036e7	0.06260472
146	0x3e534b3a	0.20634165
147	0xbe05c635	-0.13063891
148	0x3d47e458	0.04880175
149	0xbade06a8	-0.001693924
150	0xbdaebfcb	-0.08532675
151	0xbe09d857	-0.13461433
152	0xbdc0e3a7	-0.09418421
153	0x3e47707d	0.19476505
154	0xbea3b6e6	-0.31975478
155	0xbd862433	-0.06549873
156	0xbe165696	-0.14681467
157	0x3d62c446	0.055362962
158	0x3e954185	0.2915155
159	0x3e4fc969	0.20291676
160	0xbe3d08b2	-0.18460348
161	0x3eacf0fd	0.3377761
162	0xbe8c22dd	-0.2737035
163	0xbe97972b	-0.2960752
164	0xbe799ba0	-0.24375772
165	0xbd95dbca	-0.07317312
166	0x3e4de113	0.2010539
167	0xbe7d7f41	-0.24755575
168	0x3e5c7609	0.21529402
169	0xbe265034	-0.16241533
170	0xbe1a86c7	-0.15090476
171	0xbdd9c95c	-0.106341094
172	0x3e31dcbd	0.17369361
173	0xbce74a61	-0.028233709
174	0xbe246011	-0.16052271
175	0x3eb15bbc	0.346403
176	0x3e289faa	0.16467157
177	0x3e711373	0.23542576
178	0x3e0ac662	0.1355224
179	0xbe82ab23	-0.25521192
180	0xbc671abd	-0.014105496
181	0xbeac756d	-0.3368334
182	0x3e88b715	0.2670218
183	0x3e8af47d	0.27139655
184	0x3e2259a3	0.15854506
185	0xbdd5915d	-0.104281165
186	0xbe86f1a7	-0.2635624
187	0x3e8e8640	0.278368
188	0xbe821362	-0.25405413
189	0x3d730fa1	0.059341077
190	0xbe9a0a40	-0.30085945
191	0xbd3f5ff0	-0.046722353
192	0x3eb4a65a	0.35283166
193	0xbd51b764	-0.051200286
194	0x3e06bb33	0.13157348
195	0xbe7b8f6b	-0.24566428
196	0x3eade92a	0.33966953
197	0xbdb5bd2c	-0.08873972
198	0x3e9900b2	0.29883343
199	0x3e1ada65	0.15122373
200	0x3cb4853a	0.022036184
201	0x3e91853f	0.2842197
202	0x3e144c4c	0.1448223
203	0x3c9a4f23	0.018836563
204	0x3e1564eb	0.14589278
205	0x3d71d141	0.05903745
206	0x3e21dee0	0.15807676
207	0x3eaba8fd	0.33527365
208	0xbe59c93a	-0.21268168
209	0x3db8013e	0.08984612
210	0xbe539d62	-0.20665506
211	0xbdc48b88	-0.09596926
212	0x3e1ef4cd	0.15523072
213	0x3ea756a6	0.32683295
214	0xbeb24f5b	-0.34826168
215	0x3db4592b	0.0880607
216	0x3e368327	0.17823468
217	0xbe144285	-0.144785
218	0x3ea391aa	0.3194707
219	0x3e84c04c	0.2592796
220	0x3e061811	0.13095118
221	0x3cbcb052	0.023033295
222	0x3d415190	0.047196925
223	0x3cac9999	0.021069335
224	0xbe3e4e7c	-0.18584627
225	0xbe0b1523	-0.13582282
226	0xbd783191	-0.060594145
227	0xbe53c7c7	-0.20681678
228	0xbd7e699e	-0.062112443
229	0xbe2b9c91	-0.16758944
230	0xbdd80f87	-0.105498366
231	0xbdb9abfb	-0.09066006
232	0x3e257820	0.16159105
233	0xbd92da59	-0.07170553
234	0x3e06b5ee	0.13155338
235	0x3e7d47a3	0.24734358
236	0xbe933544	-0.28751576
237	0x3e18d038	0.14923179
238	0x3c11e424	0.008904491
239	0x3e0acf24	0.1355558
240	0x3eac2be2	0.3362723
241	0x3dc4be66	0.09606628
242	0x3e7128e8	0.23550761
243	0x3e9e08ba	0.30866033
244	0xbeb14afb	-0.34627518
245	0xbe5dc090	-0.21655488
246	0x3eb069d2	0.34455734
247	0xbe0bcd18	-0.13652456
248	0xbe68f9d9	-0.2275156
249	0xbce8ceac	-0.028418861
250	0xbd89b8c9	-0.06724698
251	0x3e60c596	0.21950373
252	0x3e5a63b2	0.21327093
253	0x3d7db4bb	0.061939936
254	0x3e83fe06	0.25779742
255	0x3ea547e8	0.32281423

conv2.root f4 [16, 32]
0	0xbe99fea8	-0.300771
1	0x3e19b57c	0.15010637
2	0xbe9bc185	-0.3042108
3	0xbd7badad	-0.061444927
4	0x3e96a66a	0.2942384
5	0x3de6a934	0.11262742
6	0x3e673bd2	0.22581413
7	0xbddd2b5c	-0.10799286
8	0xbe2ca48f	-0.16859649
9	0xbe8d1b98	-0.27560115
10	0x3db69130	0.08914411
11	0xbea21911	-0.3165975
12	0xbe8d15cf	-0.275557
13	0xbe1513e9	-0.14558376
14	0xbc8f8dc3	-0.017523652
15	0x3d64a6ec	0.05582325
16	0xbe629a07	-0.2212907
17	0xbbaf1b10	-0.0053438023
18	0xbe9a676e	-0.30157036
19	0x3d95f36a	0.07321818
20	0xbe93dd36	-0.28879708
21	0xbe93b6bd	-0.28850356
22	0xbe5a897b	-0.21341507
23	0x3e147b7f	0.14500235
24	0xbe523ebc	-0.20531744
25	0x3e3b81d2	0.18311241
26	0xbbcd5f02	-0.0062674293
27	0x3e346c8a	0.1761953
28	0x3c821841	0.015880706
29	0xbbd3a989	-0.006459419
30	0x3d3c82fd	0.046023358
31	0xbe02d04c	-0.12774771
32	0x3e06797c	0.1313228
33	0x3e60f397	0.21967922
34	0xbcd7388f	-0.026272086
35	0x3e0d8bf2	0.13822916
36	0xbe93991e	-0.28827757
37	0x3e88601a	0.2663582
38	0x3e074b90	0.13212419
39	0x3ebfa084	0.3742715
40	0xbd97b86f	-0.07408225
41	0x3e973443	0.2953206
42	0xbbc4f42a	-0.006010552
43	0x3e166a74	0.14689046
44	0x3ed3d985	0.41376892
45	0x3eea8a08	0.45808434
46	0xbe513337	-0.20429693
47	0x3e38faed	0.1806447
48	0xbc7cc212	-0.015427129
49	0xbdd8354a	-0.10557039
50	0xbe46cc7b	-0.1941394
51	0x3f234ae1	0.6378613
52	0xbd82c50a	-0.063852385
53	0x3ef39d88	0.47581124
54	0x3e84bae8	0.25923848
55	0x3d4a2b19	0.049357507
56	0x3d94781a	0.0724947
57	0x3dc11748	0.09428269
58	0xbe2f1367	-0.17097245
59	0x3e1782fe	0.14796063
60	0x3ecc56ea	0.3991006
61	0x3e1193a0	0.1421647
62	0x3eb91659	0.36149862
63	0x3e84c852	0.25934082
64	0x3eea86da	0.4580601
65	0xbe57ae38	-0.21062553
66	0x3c330815	0.01092722
67	0xbe500c65	-0.20317228
68	0x3d564e71	0.0523209
69	0x3e9990db	0.29993328
70	0xbdd2d3cb	-0.102943026
71	0x3ea021a7	0.31275675
72	0xbd6c5636	-0.057699405
73	0xbd7ac454	-0.06122239
74	0x3f1f2f5c	0.6218164
75	0x3f176478	0.5913768
76	0x3ec74f8a	0.3892787
77	0x3edaabc1	0.42709163
78	0x3ede300a	0.43396026
79	0xbe9363fc	-0.2878722
80	0xbeca3c53	-0.3949915
81	0xbedabf03	-0.42723855
82	0xbcdcb09e	-0.026939686
83	0x3eba432a	0.36379367
84	0x3e97ec84	0.29672635
85	0x3e921378	0.28530478
86	0xbe50baeb	-0.20383804
87	0xbe43ad78	-0.19109142
88	0x3e7cb15c	0.24677032
89	0x3beb7fa2	0.007186846
90	0xbe041b08	-0.12900937
91	0xbbc06c5e	-0.0058722934
92	0x3eb66cef	0.35629985
93	0xbe831079	-0.25598505
94	0x3d9b9491	0.07596696
95	0xbd172f58	-0.036910385
96	0x3f0708b0	0.5274763
97	0xbe5932f4	-0.21210843
98	0xbe7b7fd8	-0.24560487
99	0xbe1a1805	-0.15048225
100	0xbe9d29c5	-0.3069593
101	0x3d4a723b	0.049425345
102	0xbd629124	-0.055314198
103	0x3e6a720e	0.22895071
104	0x3a3728be	0.0006986967
105	0xbdb3ae54	-0.08773485
106	0x3ee401e1	0.44532683
107	0x3e2d983c	0.16952604
108	0x3f17524b	0.59109944
109	0x3f078383	0.52935046
110	0xbe7b29e4	-0.24527699
111	0xbe54560f	-0.20735954
112	0xbeba7847	-0.3641989
113	0x3aa9e207	0.0012961038
114	0x3e6ab279	0.22919644
115	0x3eb7a69b	0.35869297
116	0xbe45a1c4	-0.1929999
117	0x3f0c48c5	0.5479854
118	0xbeb8ac5d	-0.36069003
119	0xbe2dc9d3	-0.16971521
120	0xbb3b8ccb	-0.0028617855
121	0x3e6a1ce4	0.22862583
122	0xbe60853e	-0.21925828
123	0x3d2ff4f2	0.042958207
124	0xbe05ab64	-0.13053662
125	0x3e69a0fc	0.22815317
126	0xbda4306f	-0.080170505
127	0x3e094abe	0.13407418
128	0xbe1a7f6f	-0.15087675
129	0xbdfe8d50	-0.12429297
130	0xbc6d7afd	-0.014494655
131	0x3c92473e	0.017856237
132	0xbe59f8ae	-0.2128627
133	0xbecbd849	-0.3981345
134	0xbcee1f03	-0.029067522
135	0xbf0125ae	-0.5044812
136	0xbdb9df0b	-0.09075745
137	0xbd854de7	-0.06508999
138	0xbe880f0f	-0.2657399
139	0xbe7586d3	-0.23977213
140	0xbd2c3af5	-0.042048413
141	0x3ccdaf52	0.025108013
142	0xbef47431	-0.47744897
143	0x3ecc4bd9	0.39901617
144	0x3eb9e462	0.36307055
145	0x3e96b88e	0.2943768
146	0x3dc77794	0.097396046
147	0xbe8bf6d8	-0.27336764
148	0xbd6399a2	-0.055566438
149	0xbf09230f	-0.5356912
150	0x3e861854	0.26190436
151	0x3df137c7	0.11778217
152	0x3d836491	0.06415666
153	0x3e54b67d	0.20772739
154	0x3e596129	0.2122847
155	0x3de91167	0.11380272
156	0x3e928595	0.2861754
157	0xbdad794c	-0.08470401
158	0x3eb5be0c	0.35496557
159	0xbdf83efb	-0.121213876
160	0xbe12c7a4	-0.1433397
161	0xbe33369b	-0.17501299
162	0x3d64eb28	0.055888325
163	0x3e8eb203	0.27870187
164	0x3e9c9738	0.3058412
165	0xbc86c7d7	-0.016452713
166	0x3ceb4189	0.028717773
167	0xbeaef509	-0.34171322
168	0xbd93463c	-0.071911305
169	0xbe0a6c65	-0.13517912
170	0xbead8840	-0.33893013
171	0xbd378d0f	-0.04481226
172	0xbe3d5ce0	-0.1849246
173	0x3e10877d	0.14114185
174	0xbd916e59	-0.07101125
175	0xbeacb5d3	-0.3373247
176	0x3e8f9e5e	0.28050512
177	0x3e2ff590	0.17183518
178	0xbdf7d673	-0.1210145
179	0xbe4ae571	-0.19814087
180	0x3e66383b	0.22482388
181	0xbeb13847	-0.3461325
182	0xbe2ce70c	-0.16885012
183	0xbe9a6d4a	-0.30161506
184	0x3cc44556	0.023958843
185	0xbec36f84	-0.38171017
186	0xbe94c989	-0.2906001
187	0x3eb7c6e3	0.35893926
188	0x3dc0b9e5	0.094104566
189	0x3e85bc56	0.2612025
190	0xbe834589	-0.2563899
191	0xbef1158e	-0.47086757
192	0x3ec5d1f6	0.3863675
193	0x3e625004	0.22100836
194	0x3c77f67d	0.015134451
195	0x3e579d20	0.21056032
196	0x3e798be5	0.24369772
197	0x3e368661	0.17824699
198	0xbe69dfe2	-0.22839311
199	0x3e88cfd9	0.26721075
200	0x3e3590f0	0.1773107
201	0x3ebae607	0.36503622
202	0x3e9621cc	0.2932266
203	0x3ea5fbd1	0.32418683
204	0x3e916ee1	0.28404906
205	0x3c84d4f0	0.016214818
206	0xbe462244	-0.19349009
207	0xbd38cc6d	-0.04511683
208	0xbd1db884	-0.038506046
209	0xbea038d6	-0.31293362
210	0x3e90782a	0.28216678
211	0x3e578a52	0.21048859
212	0x3d16b2c6	0.036791585
213	0xbde657c1	-0.112472065
214	0x3e37c4b2	0.17946127
215	0xbc9ec0bd	-0.019379014
216	0x3ee57bd3	0.44821033
217	0x3dbb9280	0.09158802
218	0xbe174271	-0.14771439
219	0x3cfad5cc	0.030619524
220	0x3e4e6365	0.20155104
221	0xbe9c242c	-0.30496347
222	0x3e0e8e47	0.13921462
223	0xbb72da8c	-0.0037056534
224	0xbe62fd12	-0.22166851
225	0xbdbe3bd2	-0.092887536
226	0xbed6dcde	-0.41965383
227	0x3ed2f81f	0.41204926
228	0xbed5a3be	-0.41726488
229	0x3de52359	0.11188383
230	0x3eeb0209	0.4589999
231	0xbf08b8d2	-0.53407013
232	0x3e60894a	0.21927372
233	0x3ef7084d	0.4824852
234	0x3db72d5d	0.08944199
235	0xbe9c428b	-0.30519518
236	0x3df59168	0.11990625
237	0x3ef9168f	0.48650023
238	0xbecc8d11	-0.39951375
239	0xbd9618ed	-0.07328973
240	0xbdb5406f	-0.0885018
241	0x3e823163	0.25428304
242	0x3aaba537	0.0013095503
243	0xbe5264df	-0.20546292
244	0xbd677d0c	-0.05651574
245	0xbed61ee8	-0.41820455
246	0x3eb3cc7e	0.35116953
247	0xbdab1d5e	-0.08355211
248	0x3e80403f	0.25049016
249	0x3e3810ef	0.1797521
250	0x3ed2742e	0.41104263
251	0xbd59dae7	-0.053187277
252	0x3ebb187f	0.36542127
253	0xbd84c965	-0.064837255
254	0xbd1c32fc	-0.03813456
255	0x3eb26431	0.34842065

conv2.bias f4 [32]
0	0xbc9b6932	-0.01897106
1	0xbd133a53	-0.035944294
2	0xbd385a96	-0.045008264
3	0xbcf6e4bc	-0.030138366
4	0x3d98b4d3	0.074563645
5	0xbcb7dd67	-0.02244444
6	0x3dbd5bbe	0.09246014
7	0x3c6d1d64	0.014472339
8	0x3ca8bb20	0.02059704
9	0x3cd5b213	0.026085889
10	0x3db13c92	0.08654131
11	0xbbd4efee	-0.0064983284
12	0xbc12aba1	-0.008952052
13	0xbcf282ab	-0.029603323
14	0x3d661283	0.056169998
15	0x3dd7f5be	0.105449185
16	0x3ceb98b5	0.02875934
17	0x3d2bb0e6	0.04191675
18	0x3d504cbb	0.050854426
19	0x3e06cbab	0.1316363
20	0x3d305329	0.043048058
21	0x3c2d4350	0.010575131
22	0x3bb6ba20	0.005576387
23	0xbc168989	-0.009188064
24	0xbc7c0506	-0.015382057
25	0x3cc28486	0.023744833
26	0x3cb1170a	0.021617431
27	0x3d64a912	0.0558253
28	0xbc9fe3f7	-0.019517882
29	0xbd22f899	-0.039787862
30	0x3d91403e	0.07092331
31	0x3da8202e	0.08209263

fc1.weight f4 [16, 32]
0	0xbb98f9b5	-0.0046684393
1	0xbe6e2681	-0.23256876
2	0x3d9a58aa	0.075364426
3	0x3e12c9c5	0.14334781
4	0xbe1988bc	-0.14993566
5	0xbd957ee1	-0.07299591
6	0x3cf9b934	0.03048382
7	0x3dc28a2b	0.0949901
8	0xbdf5d5a4	-0.12003639
9	0x3e1d4c9f	0.1536126
10	0x3d63ac78	0.0555844
11	0x3c0c43c9	0.008561083
12	0xbd338360	-0.04382646
13	0xbc3d65bc	-0.0115599
14	0x3dee31be	0.11630581
15	0x3d841d5b	0.064509116
16	0x3e1bc650	0.15212369
17	0xbe0942d7	-0.13404404
18	0xbdfa89a7	-0.12233286
19	0xbe5c44c0	-0.21510601
20	0xbddd12a3	-0.1079457
21	0xbd48e590	-0.049047053
22	0x3dd786d5	0.10523764
23	0x3dbda5c6	0.092601344
24	0x3c2a6cd9	0.010401928
25	0xbdb5347d	-0.08847902
26	0x3bf67914	0.007521758
27	0xbd6e2845	-0.058143873
28	0xbe2f8743	-0.17141442
29	0x3e199279	0.14997281
30	0x3d5737c0	0.0525434
31	0xbd9a89dd	-0.075458266
32	0x3e5c2c0d	0.21501179
33	0x3f37be5f	0.7177486
34	0xbcbd8807	-0.023136152
35	0x3d4472f3	0.047961187
36	0xbe9f9feb	-0.31176695
37	0x3e2bcd52	0.16777542
38	0xbe1ca9ae	-0.15299103
39	0x3ea9fab9	0.331991
40	0xbccc7d53	-0.024962103
41	0x3ea2dae8	0.31807637
42	0x3dd16037	0.1022343
43	0xbdc33ac9	-0.09532697
44	0x3ea0146e	0.31265587
45	0x3ec6b853	0.38812503
46	0xbee6c88f	-0.4507489
47	0xbd09467a	-0.033514477
48	0x3e6a98fd	0.22909923
49	0x3e955744	0.2916814
50	0x3dc97b3c	0.09837958
51	0x3eaa14e8	0.33219075
52	0xbe7bf223	-0.24604087
53	0xbdd59455	-0.10428683
54	0xbdb73a40	-0.08946657
55	0x3d46938a	0.048480548
56	0x3e752ee4	0.23943669
57	0x3e5930b5	0.21209987
58	0x3e09a7b7	0.13442884
59	0xbd82463c	-0.063610524
60	0x3d9357d9	0.0719449
61	0xbdc1605c	-0.09442207
62	0x3c3f3628	0.011670627
63	0xbd85f0ac	-0.06540045
64	0x3cde78b2	0.027157161
65	0xbd7b2567	-0.061314967
66	0x3df40df4	0.11916724
67	0x3d8dea34	0.06929436
68	0xbe129db7	-0.14317976
69	0x3d8fd423	0.07022884
70	0x3d3b1300	0.045672417
71	0x3e120bb7	0.14262281
72	0x3db43831	0.0879978
73	0xbd875f4a	-0.06609972
74	0x3d879129	0.06619484
75	0x3e2329d6	0.15933928
76	0xbe127204	-0.14301306
77	0xbdcdd9b0	-0.10051286
78	0x3d4dc46e	0.050236158
79	0x3dae9792	0.085250035
80	0xbe07523a	-0.1321496
81	0xbdb96fb7	-0.09054511
82	0xbd8813ee	-0.06644426
83	0xbe061973	-0.13095646
84	0xbdbed2b0	-0.09317529
85	0xbcda3aec	-0.026639424
86	0xbdfd219b	-0.12359925
87	0x3d51004d	0.051025677
88	0xbe1c66c6	-0.1527358
89	0xbe219ea8	-0.15783179
90	0xbd8d17ca	-0.06889303
91	0xbd2f3e82	-0.04278422
92	0x3d9ef324	0.07761219
93	0x3e2bd0ca	0.16778865
94	0xbe0edf88	-0.13952458
95	0x3d9d18f8	0.07670778
96	0xbe8d359a	-0.27579957
97	0xbe48b923	-0.19601874
98	0x3e3e0e8e	0.1856024
99	0x3d64a406	0.055820487
100	0xbc99f6c8	-0.018794432
101	0xbd7af13b	-0.06126521
102	0x3e6077a7	0.21920644
103	0xbe4ab9be	-0.19797418
104	0x3e432eb7	0.19060789
105	0x3db73fc4	0.08947709
106	0xbe5228ea	-0.2052342
107	0xbe5e8c15	-0.21733125
108	0xbe7a3a04	-0.24436194
109	0xbe3ad838	-0.18246543
110	0x3ea90e01	0.33018497
111	0x3ebc505b	0.36780056
112	0x3e5ad714	0.21371108
113	0x3e44fd40	0.19237232
114	0x3e76a897	0.2408775
115	0xbf05f906	-0.52333105
116	0x3d62c551	0.055363957
117	0xbe595710	-0.21224618
118	0xbd1f3e55	-0.038877804
119	0x3c8fba5a	0.017544914
120	0xbc924664	-0.01785583
121	0x3d2c4bb9	0.042064402
122	0x3e1e17e3	0.154388
123	0x3e81f477	0.25381824
124	0xbd3eed9b	-0.046613317
125	0x3d167061	0.036728267
126	0x3e874e11	0.26426747
127	0x3e90d98d	0.28290978
128	0x3e99be43	0.3002797
129	0xbe337b78	-0.17527568
130	0xbe1cee19	-0.15325202
131	0x3e6bce97	0.23028027
132	0x3e9d43ab	0.3071569
133	0x3e096004	0.13415533
134	0xbebc1441	-0.36734203
135	0x3e20c639	0.15700616
136	0xbedb595f	-0.42841622
137	0x3db65982	0.08903791
138	0x3de8f9d1	0.11375774
139	0x3d81a77a	0.06330772
140	0x3e242657	0.1603025
141	0xbcb0e10d	-0.021591688
142	0x3ea3edde	0.32017416
143	0xbe99c6cc	-0.30034482
144	0x3d6b3f18	0.057433218
145	0xbd9c9589	-0.07645709
146	0xbc9ba4ea	-0.018999536
147	0x3e49bcfb	0.19700997
148	0x3cdab662	0.026698295
149	0x3eae980c	0.34100378
150	0xbdd97f7e	-0.1062002
151	0x3e6e6808	0.23281872
152	0x3e59b7dd	0.21261545
153	0xbe3b0a42	-0.18265632
154	0xbcfbe24a	-0.030747551
155	0x3bae2bc8	0.0053152777
156	0x3e7ef660	0.24898672
157	0x3d1c7f3d	0.03820728
158	0xbdb8e9d0	-0.09028971
159	0xbd110e5b	-0.03541408
160	0x3da8c32f	0.08240353
161	0xbcb8c69d	-0.022555644
162	0x3d556ca9	0.05210558
163	0x3dd064d2	0.1017548
164	0xbce5a125	-0.028030941
165	0xbdd508b7	-0.10402053
166	0x3de19cef	0.11016261
167	0xbda3a4e8	-0.07990438
168	0xbd8ce565	-0.06879691
169	0x3e0555d4	0.13021022
170	0xbd3a4496	-0.045475565
171	0x3dea2fa1	0.11434866
172	0xbd88f816	-0.06687944
173	0xbe05c642	-0.1306391
174	0xbe1d8588	-0.1538297
175	0xbdf6e005	-0.12054447
176	0xbd8994e6	-0.06717853
177	0x3d7c0e7a	0.061537243
178	0xbe1921a4	-0.14954239
179	0x3dc698ef	0.096971385
180	0xbe292a81	-0.1652012
181	0xbd11b6ff	-0.03557491
182	0xbdc5f723	-0.09666278
183	0xbd7ceb67	-0.061747935
184	0xbda1b0b4	-0.078950316
185	0xbda26118	-0.079286754
186	0xbdfcb44b	-0.12339076
187	0x3b618142	0.003440932
188	0x3e111832	0.14169386
189	0xbe22a2a2	-0.15882352
190	0xbca2c1de	-0.019867834
191	0x3db357f5	0.08757011
192	0x3df46d1a	0.11934872
193	0xbdf39816	-0.118942425
194	0xbd40cd94	-0.047071055
195	0xbe21488d	-0.15750332
196	0xbe2cfa41	-0.1689234
197	0x3da5ff90	0.08105385
198	0x3c13b766	0.009015894
199	0x3dbd05f4	0.09229651
200	0xbdd84f61	-0.10562015
201	0xbca28c34	-0.019842245
202	0xbd6928bd	-0.056923617
203	0xbe30a32a	-0.17249742
204	0xbe20b679	-0.15694608
205	0x3dd54f4f	0.104155175
206	0xbe1d9972	-0.15390566
207	0xbb3c6471	-0.0028746391
208	0xbd755833	-0.059898566
209	0x3d173918	0.036919683
210	0x3e147b5f	0.14500187
211	0xbe119c30	-0.14219737
212	0xbdb45845	-0.088058986
213	0xbdb3ac8b	-0.08773144
214	0xbd20b88c	-0.039238498
215	0x3e26e765	0.16299208
216	0xbc1df66f	-0.009641274
217	0xbdc00b9e	-0.09377216
218	0x3db3e6dc	0.08784267
219	0xbdfd9333	-0.12381592
220	0x3e05e33c	0.13074964
221	0xbd7e5615	-0.062093813
222	0xbc065be0	-0.008200616
223	0x3d45a4d2	0.048252888
224	0x3d5a0b3c	0.05323337
225	0x3d98af57	0.074553184
226	0x3d899fb8	0.06719917
227	0x3db1a5c8	0.086741984
228	0xbd45332d	-0.04814451
229	0x3e12e47f	0.14344977
230	0xbe177825	-0.14791925
231	0xbe340901	-0.1758156
232	0xbdcfa50e	-0.101389036
233	0x3de050cb	0.1095291
234	0xbd0ed662	-0.03487242
235	0xbe34dd88	-0.17662632
236	0xbdfbb5cb	-0.12290534
237	0xbe3dd7e9	-0.18539394
238	0x3df880f7	0.12133973
239	0xbe0516e3	-0.12997012
240	0xbdb1aca6	-0.08675508
241	0x3dcf7f56	0.10131709
242	0x3d24832c	0.040164158
243	0x3d7abe5d	0.0612167
244	0xbd49fc01	-0.049312595
245	0xbe2cbaa4	-0.16868073
246	0xbce2b01a	-0.027671862
247	0x3d1113f6	0.035419427
248	0xbdddc982	-0.1082945
249	0x3a53c110	0.000807778
250	0x3dd9ee70	0.106411815
251	0x3d259f34	0.04043503
252	0x3def6b47	0.116903834
253	0x3c87539e	0.016519364
254	0xbe664b39	-0.22489633
255	0x3e0f7cc3	0.14012437

fc1.bias f4 [16]
0	0xbe34cdb5	-0.17656596
1	0xbd8ab0f6	-0.06772034
2	0x3e19d358	0.15022027
3	0x3df5bba5	0.11998681
4	0xbe0b6447	-0.13612472
5	0xbd88dea5	-0.06683091
6	0xbcd84c7d	-0.02640366
7	0x3d30cb6c	0.04316275
8	0xbd91ee4f	-0.07125532
9	0x3d424d5e	0.047437064
10	0x3dbae270	0.09125221
11	0xbcbf3cc0	-0.023344398
12	0xbd1ae19f	-0.037812825
13	0x3b9a28f8	0.004704591
14	0x3d90b645	0.07066015
15	0xbe139e4c	-0.14415854

fc2.weight f4 [6, 16]
0	0x3e11460a	0.14186874
1	0x3de1f588	0.110331595
2	0x3c392bfa	0.011301989
3	0x3e1bf503	0.15230183
4	0xbe0df597	-0.13863216
5	0x3ba1de00	0.0049397945
6	0x3da5fb05	0.08104519
7	0xbdcd857e	-0.10035227
8	0xbe259a88	-0.1617223
9	0x3d04ddce	0.032438092
10	0x3e93ab0b	0.28841433
11	0xbd847a46	-0.06468634
12	0x3e40b6cc	0.18819731
13	0x3e6809c7	0.2265998
14	0x3ea47b85	0.32125488
15	0xbe253093	-0.16131811
16	0x3d5a9775	0.053367097
17	0xbe6113bc	-0.21980184
18	0xbe70c473	-0.2351244
19	0x3d379381	0.044818405
20	0x3e84e6fe	0.25957483
21	0xbda054a0	-0.07828641
22	0xbda8a351	-0.08234275
23	0x3e484c58	0.19560373
24	0x3e119a00	0.14218903
25	0x3e1b5f83	0.15173154
26	0xbde90932	-0.11378707
27	0xbf751a54	-0.957433
28	0x3e05488b	0.13015954
29	0xbdd7d4cc	-0.10538635
30	0x3e8689c0	0.2627697
31	0x3cd14089	0.025543468
32	0xbe41ca17	-0.18924747
33	0x3e269843	0.1626902
34	0x3e7a6eea	0.24456373
35	0xbf03094a	-0.5118605
36	0x3e25c743	0.16189294
37	0xbe64ae7e	-0.22332188
38	0x3dfb9b2e	0.122854576
39	0xbe4042cd	-0.18775482
40	0xbdf4ac38	-0.119469106
41	0xbd78aa2d	-0.060709167
42	0xbece140f	-0.40249678
43	0xbecffd28	-0.4062283
44	0xbe4ed4b7	-0.20198332
45	0xbdd2b657	-0.10288685
46	0x3dc3c2d5	0.09558646
47	0xbdbc6dc4	-0.09200624
48	0x3de3cd3c	0.1112313
49	0x3e4fed35	0.20305331
50	0x3de4b2de	0.11166929
51	0xbf4ce65f	-0.8003902
52	0xbdf9f940	-0.12205744
53	0x3e53319e	0.20624396
54	0x3a570d79	0.00082036067
55	0xbc0c5399	-0.008564853
56	0x3e6ac92c	0.22928303
57	0x3e27e0c6	0.16394338
58	0xbe642b8a	-0.22282234
59	0x3e1319f7	0.14365374
60	0xbf3ec43b	-0.74518174
61	0xbcdc9610	-0.026927024
62	0xbec75911	-0.3893514
63	0xbe03abeb	-0.1285855
64	0xbdaf6008	-0.085632384
65	0x3d2a10c8	0.04151991
66	0x3e6724ab	0.22572581
67	0xbb1983f5	-0.00234246
68	0xbee1c9a4	-0.44099152
69	0xbda69144	-0.08133176
70	0x3e56078c	0.20901316
71	0xbdd69abf	-0.10478734
72	0x3e6cfece	0.23144075
73	0x3e367ec3	0.17821793
74	0x3dced106	0.10098462
75	0x3e42e6af	0.19033311
76	0x3e22136c	0.15827721
77	0xbe87c7be	-0.2651958
78	0xbe79ca4f	-0.24393581
79	0xbdb98f98	-0.090605915
80	0x3ddfe547	0.10932403
81	0xbf06083d	-0.5235632
82	0xbd468b07	-0.04847243
83	0x3ea5fedb	0.32421002
84	0xbf001880	-0.50037384
85	0x3e00f918	0.12595022
86	0x3e059fdd	0.13049264
87	0x3d8d8245	0.069096126
88	0x3e4ec206	0.20191202
89	0xbdf17c02	-0.11791231
90	0x3e7a9f8e	0.24474928
91	0xbe037b74	-0.12840062
92	0x3ecb4e58	0.3970821
93	0xbe48640a	-0.19569412
94	0x3d85467e	0.06507586
95	0x3d49d8e8	0.049279124

fc2.bias f4 [6]
0	0x3ca8846e	0.02057096
1	0xbe4f94c9	-0.20271601
2	0xbd1ad711	-0.03780276
3	0xbe66b48b	-0.22529809
4	0x3d9fa4f7	0.077951364
5	0x3e638907	0.2222024
