models/affd_model.pth (torch, 57570 bytes, 12 tensors)

node_embedding.weight f4 [32, 11]
00000000: 6b28 5a3e 3567 40be 7942 a5be 906c 5d3e
00000010: 7ebd a3be b291 3cbe 1ef7 ec3e 280d 1f3f
00000020: fa09 b4be 6dd9 45bf 084c 9b3f 4317 4e3e
00000030: 0dd9 e53e 9b9f 1fbd 4eb9 8a3c a266 1e3e
00000040: 6ff6 7a3d 8171 b83e 456d 18bf 62d0 833e
00000050: 7b2d 3ebe 7c39 a33f ad64 fc3d 960a 9ebe
00000060: 59f6 d2bd 32cf 86be ff94 f7be a47f c7be
00000070: 1571 fd3e f47e d5be 5897 083f c765 bbbe
00000080: a297 a83f 9dad bc3e b80f 31bf 260a 9ebe
00000090: 663b 1cbf 81b0 fc3e 2abb 373e 37d6 533e
000000a0: 4bfe 38be 6111 393e 1943 7e3e 6dcf 4bbf
000000b0: c76d 9abe 0c89 49be e4b8 e0bc 304a 80bd
000000c0: 4952 d13d 4eac 9f3e 3de1 6ebe 8711 14be
000000d0: 2870 993b 19e6 493f 2c91 20bf 3e3d e03e
000000e0: 4330 81bd 526a 2c3e 7dfa 6bbe fd70 8abe
000000f0: d31f 9a3e f744 2fbe 7d71 c1be 8875 dcbe
00000100: b139 f9be 579d 2e3f e067 51bd fdd0 5ebd
00000110: 9376 263d f172 a13e 54ca 1dbe 380c 6dbe
00000120: cf87 1ebe 44a2 a43d ce89 e7be bdd4 f93c
00000130: 61b2 3cbf 843e b9be 53ac 30be 8ce1 81be
00000140: fa0f f5be 841f a83e 0a60 913e e5ee f2be
00000150: 7d11 833e 9f04 4a3e 54ba 7f3f 19c3 65bf
00000160: f647 663e 3c04 673e 06fd f3bc a6e5 ea3e
00000170: 65fb 6f3e fd5d 973e d755 023e e70e eabe
00000180: 3b51 74bd 6604 a8bd 7205 333f 0b77 ed3d
00000190: d73e 41be a088 03be d825 9cbe edc1 0abf
000001a0: 9926 d63e befe 4abd 3926 f63e 133b 80be
000001b0: cb61 26bf 521e 083f 064e 863e 19c1 aa3e
000001c0: e62e 0dbe 7418 a23e a655 a13e 1774 153d
000001d0: a3e6 60be e2cc af3e c263 13be 9e76 e93e
000001e0: a183 28bf 152f 6b3d 7aa3 593e 95bb a93d
000001f0: 8fb7 26be 3192 363d 9f47 ddbe 9085 e23e
00000200: c59a 1f3f 033d 05be 6dd3 4f3f 4e18 55bf
00000210: 8e7c 98be d870 18bd f5e7 213b caf1 b2bd
00000220: d1b5 80be 8cbe a5be 6d42 163e 7f9b e3bd
00000230: a9ef 23be 59d9 ec3d 5a06 10bf 1ac5 ff3e
00000240: 3bc0 f4be b0a3 a6be 55e2 dcbe 6a2b 17be
00000250: bee5 c63e a0f4 60be 22ec b1bd ded3 f63d
00000260: 42ac 26bf 7953 253f c0cb b73e bb1f 51be
00000270: 7bab 11be f27b b8be da53 e8bd 0d1b 313e
00000280: 0def 48bd c9dd e1be e29b f2be 7e43 df3e
00000290: b6b3 edbe f2e7 c6be d2ac a2be ac14 28bd
000002a0: 29a1 5b3d 3f21 e03e 53f3 e5be 1145 ec3e
000002b0: dd18 f53e 5800 f8be b679 943e 5492 e8bc
000002c0: ea04 9bbe b463 573e d7ce 453e f47f 2b3e
000002d0: caaa 93bc 4ff0 babe 314a 19be 279b 65bd
000002e0: 9e40 7bbd f980 2cbf d0be eb3e f9ff 6cbe
000002f0: eee4 d33c 9d99 49be 179c fabd 6000 cfbe
00000300: 3e22 b9be ef4b c33d 311d 88be 608f 42be
00000310: 4885 cdbe e9ce 0b3f b9c8 093e 0300 05be
00000320: 988c aebe 4305 fdbe bb02 353e dc57 edbe
00000330: 3b96 fb3e 38bb 14bf c7f9 a3bd 45c9 6bbc
00000340: 882a abbe c0c4 b73e 646d 723e 566d 54bd
00000350: 64bf ca3e a6fe 003e 18c6 6cbe aa4b c23e
00000360: 101f abbe ed38 9a3e 0a15 81be ce82 023f
00000370: 1765 22be 261a 11bf 6d5f b0be ae49 0bbf
00000380: 2e3d ad3e 6cf2 8cbe 4ed4 073e 1883 5d3e
00000390: 7299 b73a 072c 233f c5b3 84be 6e37 86bd
000003a0: 346e 0f3e 8d00 50be e5fa 2c3e 2a92 b1be
000003b0: 4dec 9abe 204e c53e 14b6 aebe 2888 cbbe
000003c0: d61f 60bf 05ae 993f 7f72 93be 487f d5bd
000003d0: 8535 463e d239 b33d d25e 05be 0b59 af3c
000003e0: abaa eb3e b918 813d 1c71 d3be 9677 43bf
000003f0: a860 383f d507 a5bd 41ea 8dbd d174 0dbd
0.2130448 -0.1878937 -0.32277277 0.21623445 -0.3198051 -0.18414953 0.46282285 0.6212945
-0.35163862 -0.7728489 1.2132578 0.20126061 0.4489216 -0.03897057 0.016934063 0.15468839
0.061270174 0.36024097 -0.5954173 0.2574492 -0.18572037 1.2751918 0.1232389 -0.3086745
-0.10300893 -0.26329952 -0.48355862 -0.3896457 0.49500337 -0.4169842 0.5335593 -0.36601087
1.3171275 0.36851206 -0.6916461 -0.30867118 -0.61028135 0.49353412 0.17942491 0.20687185
-0.18065755 0.18073036 0.24830283 -0.7961338 -0.30161878 -0.19681185 -0.027431913 -0.0626415
0.10220773 0.31186146 -0.23328109 -0.14459811 0.0046825595 0.78866726 -0.62721515 0.43796724
-0.06308033 0.16837433 -0.23044772 -0.27039328 0.30102405 -0.17116152 -0.37781897 -0.4305842
-0.48676828 0.6820883 -0.051124454 -0.054398526 0.040640425 0.31533006 -0.15409213 -0.23149192
-0.15481494 0.08038762 -0.45222324 0.03049695 -0.73709685 -0.36180508 -0.17253236 -0.2536739
-0.47863752 0.32836545 0.28393584 -0.47447887 0.2559928 0.19728325 0.9989369 -0.8975082
0.22488388 0.22560209 -0.029783737 0.45878333 0.23435743 0.29563895 0.12728058 -0.45714495
-0.05964778 -0.08203964 0.69930184 0.11594971 -0.18871628 -0.12845087 -0.30497622 -0.5420216
0.41826323 -0.049559347 0.48076037 -0.2504507 -0.6499297 0.53171265 0.26231402 0.33350447
-0.13787422 0.3165928 0.31510657 0.036487665 -0.21962981 0.34336 -0.14393523 0.4559831
-0.6582585 0.057417948 0.21253768 0.082877316 -0.1628096 0.044573013 -0.43218705 0.44242525
0.62345535 -0.13011555 0.81181985 -0.8324021 -0.29782528 -0.03721699 0.0024704908 -0.08737524
-0.25138715 -0.32371938 0.14673777 -0.11113643 -0.16009392 0.11564893 -0.5625969 0.49955064
-0.4780291 -0.3254676 -0.43141428 -0.14762655 0.38847154 -0.21968317 -0.08687617 0.12052129
-0.65106595 0.64580494 0.35897636 -0.2042226 -0.14225571 -0.36032063 -0.113441184 0.17295475
-0.0490561 -0.4411452 -0.47384554 0.4360618 -0.4642617 -0.38848835 -0.31772476 -0.04103534
0.05362049 0.43775365 -0.44912204 0.46146443 0.47870532 -0.48437762 0.28999108 -0.028390087
-0.30277187 0.21034127 0.19317184 0.16748029 -0.018025775 -0.36511466 -0.14969708 -0.056056168
-0.06134092 -0.67384297 0.46044016 -0.23144521 0.025865998 -0.19687505 -0.12236803 -0.40429974
-0.36158937 0.095359676 -0.2658477 -0.19000006 -0.40140748 0.54612595 0.13455476 -0.12988286
-0.3409164 -0.49418077 0.17676823 -0.46356094 0.49138054 -0.58098173 -0.080066256 -0.014391248
-0.33430886 0.35892296 0.23674542 -0.051862083 0.39599144 0.1259714 -0.23122442 0.37948352
-0.33422136 0.30121556 -0.25211364 0.5098084 -0.15858875 -0.56680524 -0.34447804 -0.544093
0.3383574 -0.27528703 0.13264582 0.2163204 0.0014007522 0.63739055 -0.25918403 -0.06553541
0.14006883 -0.2031271 0.16892584 -0.34681827 -0.30258408 0.38536167 -0.3412329 -0.39752316
-0.8754858 1.2006232 -0.2879829 -0.104246676 0.19356354 0.08751263 -0.13024452 0.021404764
0.46028647 0.063035436 -0.41297233 -0.7635435 0.72022486 -0.080581345 -0.06929446 -0.034535233

node_embedding.bias f4 [32]
00000000: 5628 a5be f6f1 893e abab 19be f580 283e
00000010: 342a a13e 93db c0be d6bb 93be 2efb 833c
00000020: 473f c93c 7206 bcbc c1f8 e73e 2647 46be
00000030: 9843 66be 9749 d7be 8c7a bfbe 4dc6 543e
00000040: c072 9fbe e738 e7be c847 d23c ae8d b63e
00000050: a2dd d23e f132 fdbe 52fa 42be e5bd 9cbe
00000060: 43e3 693e e08a c6be 56d3 a53a 676c 0dbe
00000070: 4de4 0ebe 2528 963e 91c3 bdbd 71df a6bc
-0.32257336 0.26942414 -0.15006892 0.16455443 0.3147751 -0.37667522 -0.28854245 0.016110983
0.024566306 -0.022952292 0.45306972 -0.19363078 -0.22486722 -0.42048332 -0.37398183 0.2077877
-0.31142235 -0.451606 0.025668994 0.35654968 0.41184717 -0.49452928 -0.19040802 -0.30613628
0.228406 -0.38777828 0.0012651484 -0.13810883 -0.13954277 0.29327503 -0.09265817 -0.020370217

conv1.weight f4 [11, 32, 16]
00000000: dfab bd3c 9cc4 673e 3ba3 0d3e 38f0 2abe
00000010: bc9f a03e 3689 613d eba9 473c f4eb 8bbd
00000020: 5587 ee3d 40c4 3abe 7a30 84be 3866 3ebe
00000030: 0d45 ad3d 5d84 3dbd 4887 523d 5576 9a3e
00000040: df73 233e 0241 683e 3950 b33e 0aef 08be
00000050: 205b 38be dc45 883e f5e9 083d ecde 753e
00000060: 8a63 3dbe 2614 ba3d c0ca 81be 7882 2bbe
00000070: fa5f 953e a1a6 73be 7158 d1bd 6a3e bbbb
00000080: 1930 b43e a23c 20bd 5818 afbe 6c59 8cbc
00000090: 69f6 b13e 1d8f 913b d01d 1dbe bb47 b3be
000000a0: 40c3 95be f643 903e 5ae3 8ebe 3a9e bb3d
000000b0: e677 44be 1169 38be 1690 fa3d cc1e 253d
000000c0: cab8 acbe 6464 813e ae1e d5bd 632a 8b3e
000000d0: 6cb6 093e d628 d23d b9c6 893e 531a 733e
000000e0: 2194 833e 07d6 8ebe 8178 d9bd 0602 24be
000000f0: f220 dfbd c424 6c3d a3cc 363e 1157 6d3e
00000100: f515 6fbe 4b7a 89bc 1a9e 29be a934 ac3c
00000110: 11e9 963e 1c2c 693e e14b d33d 8ac4 883e
00000120: 77c4 8fbe f34b 4abe 9441 afbe 432a 5d3d
00000130: f1b8 00bc 0258 663e 347d dfbd adcb 4f3e
00000140: 7029 a63e c07e a83d 3d42 81be 2569 eabc
00000150: e897 09bd 196e 223e 5fa1 a7be 88db 03be
00000160: cc2f 523e 76ab 853d 34a7 21bd f60f 383e
00000170: 61c4 7ebe a804 b53e 555c 783e c293 3c3e
00000180: 12f1 54bd 0cf8 a7bd 2f1d b23d 0b41 52be
00000190: 9553 243e edcc a9bd bead 6fbe dc44 85be
000001a0: 3d01 283e 3f36 b5bd 1630 65be 2c9f adbe
000001b0: b30d b2be 97d4 8e3e c59d 79bd 14d8 7cbe
000001c0: 6bf6 d83d 75af 933e 0b99 b33e 1bdd 7e3e
000001d0: 6518 883e b71d 493e dc28 eb3d b0f0 e6bd
000001e0: 8d39 8abe d59e 8d3e d79e a73d ffa2 793e
000001f0: 5130 d03c 4367 11be e461 0dbe df97 c2bd
00000200: 3bd8 a43e 38ae 1b3d cf18 753d 5945 923d
00000210: e27c a43e 68b3 63bc df4b a63e 4ea9 903e
00000220: 5443 7dbe 4897 c93d 7c91 98be 9da9 293e
00000230: 5258 d3bd f7c7 05be 0682 063e d043 3e3c
00000240: 0fb5 a5bd 6c5c 333e cfe2 6d3e 6acc 9dbe
00000250: e7e6 88be 0114 4d3e 67c5 443d c1f0 3cbd
00000260: 70e1 c5bd c1ff 453e a98c 8dbd eac9 7e3e
00000270: 4471 3ebe 5d99 18be 0d7e 44be 1e43 a93e
00000280: f890 a4be be60 a9be daba 743e 8bc3 273b
00000290: 933b 8d3e 6de6 ab3e a71d 833b adaa 44be
000002a0: 0771 173e 9e04 b4be ea31 073e 56f5 2abe
000002b0: 067c 7abe dde8 cd3d 93ad 983e c768 753e
000002c0: 6c46 1a3e 9e6a 90be db31 8e3e 14ef a0be
000002d0: ed68 9b3e 3b72 5dbe 60a9 223e 6cf5 54be
000002e0: 87bc 253b 4f73 b4bd 661e b13e 2136 943e
000002f0: 9111 573e a485 8c3e 6054 a7bd 9636 96bb
00000300: 7bdd e339 58ce 133d fea8 88bc 1977 753e
00000310: 3e8d a73e 8c67 1ebe 73d5 f63c 80cc 50bc
00000320: d623 c7bd 6de2 2dbe 4343 57bd 0182 85be
00000330: c3ba 92be 0486 68be 21a0 7a3e d3e1 543e
00000340: 6d09 7cbe 02ae afbe 60b0 ecbd f043 26bc
00000350: 0cc6 2c3e 9f1e 343e 07c2 733e cd43 6abe
00000360: 5134 91be 2088 9abd c440 573e 9fb2 46be
00000370: 3d85 713d e1d8 7dbe 516a a93e 2e52 4a3e
00000380: ea6f 363e d73a 36bc d224 0e3e 209e 833d
00000390: c03d 8b3e 0698 8b3e f4fa 2b3e e57d a33d
000003a0: e503 303e 8117 ab3e a858 86bd a0a0 3dbe
000003b0: 37ef bf3d ea91 923d 9e43 90be 27ec b33e
000003c0: 01e0 90be 8fe5 00be 0b47 41be 2ed1 b13e
000003d0: 58e4 c33d b0e0 efbc 309e cb3d a134 2ebe
000003e0: 37b0 90be 0301 713c e64e d0bc 0a84 423e
000003f0: 4e16 55be ed0b 5c3e 0212 a3be acff c0bd
0.023153244 0.22633594 0.13831799 -0.16693199 0.31371868 0.055062495 0.012186508 -0.06832114
0.11646906 -0.18238926 -0.25818235 -0.18593681 0.08460436 -0.04626881 0.051398546 0.30168405
0.1596217 0.22681049 0.35022143 -0.13372436 -0.18003511 0.26615798 0.033426244 0.24010819
-0.18495002 0.09085874 -0.25349998 -0.16748989 0.29174787 -0.23794033 -0.10221947 -0.0057142274
0.35192946 -0.039120324 -0.3419826 -0.017132483 0.3475831 0.0044421093 -0.15343404 -0.35015664
-0.29250526 0.2817685 -0.2790783 0.09161039 -0.19186363 -0.1800883 0.122345135 0.040312573
-0.33734733 0.25271904 -0.10406242 0.27180776 0.13448495 0.10261695 0.26909426 0.2374051
0.2569895 -0.27897665 -0.106186874 -0.16016397 -0.10894956 0.05765225 0.178515 0.23177744
-0.2334822 -0.016781947 -0.16564217 0.021021204 0.2947469 0.22770733 0.10317207 0.26712447
-0.28079578 -0.19755535 -0.3422972 0.053995382 -0.0078565935 0.2249451 -0.109125525 0.2029254
0.3245349 0.08227301 -0.25245848 -0.02861459 -0.033592135 0.15862311 -0.32740304 -0.12876713
0.20526046 0.06526844 -0.039466098 0.17974839 -0.248796 0.35355115 0.24253972 0.1841574
-0.051987715 -0.08201608 0.086969726 -0.20532624 0.16047509 -0.082910396 -0.23406121 -0.26029098
0.16406722 -0.08848237 -0.22381625 -0.339105 -0.34776077 0.27896568 -0.060941476 -0.24691802
0.105938755 0.288448 0.350777 0.24889033 0.26581112 0.19640242 0.11482403 -0.11276376
-0.26997033 0.27660242 0.08184593 0.24378584 0.025413664 -0.14199547 -0.13806874 -0.09501623
0.3219622 0.038007945 0.059838112 0.07142133 0.32126528 -0.013897754 0.3247976 0.2825417
-0.24732715 0.09843308 -0.29798496 0.16568609 -0.1031958 -0.13064562 0.13135538 0.011612847
-0.08091175 0.17515725 0.23231052 -0.30820018 -0.26738665 0.20027162 0.04803982 -0.04612804
-0.096621394 0.19335844 -0.069115944 0.24881712 -0.18597895 -0.14902253 -0.1918871 0.3305902
-0.32141852 -0.3308162 0.23899403 0.002559873 0.27584514 0.33574238 0.0040013376 -0.19205733
0.1478921 -0.35159773 0.13202634 -0.1669515 -0.24461374 0.10054181 0.29819927 0.2396575
0.15065926 -0.28206342 0.27772412 -0.31432402 0.3035349 -0.21625607 0.15884924 -0.20796746
0.0025289373 -0.08811056 0.34593505 0.28947547 0.21002795 0.2744571 -0.0817039 -0.004584144
0.0004346183 0.036085457 -0.016682144 0.23971213 0.32724947 -0.15469187 0.030131077 -0.012744069
-0.09723632 -0.16980906 -0.05255438 -0.26075748 -0.28658113 -0.22707373 0.24475147 0.2078927
-0.2461297 -0.34312445 -0.11557078 -0.0101480335 0.16872424 0.17589806 0.23804484 -0.22877426
-0.28360227 -0.07545495 0.210208 -0.19404076 0.058964957 -0.24789764 0.33088925 0.19757912
0.1781613 -0.011122427 0.13881233 0.06426644 0.2719555 0.27264422 0.1679495 0.07982997
0.17188986 0.3341637 -0.065598786 -0.18518305 0.093717985 0.07156737 -0.28176588 0.35141107
-0.282959 -0.1258757 -0.18874757 0.34729904 0.095650375 -0.029281944 0.09942281 -0.17012264
-0.2825944 0.014709714 -0.025428247 0.18995681 -0.2080929 0.21488924 -0.31849676 -0.094237655

conv1.root f4 [32, 16]
00000000: beb5 13be b19f 60be bdb6 e7be 61c6 de3e
00000010: 6c75 973e dac6 e83b 25f8 8b3d b2b1 cabe
00000020: b2fc 00bd 55c7 c93d c355 9c3e ea58 06bf
00000030: d099 81bd 9681 8b3e f3e8 0d3e 3fe3 ae3e
00000040: 1f6b 87be ae05 0cbf 4dc0 be3e 9135 a73e
00000050: 6cef 543d 890a 623d d7b5 e0be 470b ebbd
00000060: 0e70 1a3e 7793 163d 6253 873e a64e e9bb
00000070: 1163 3ebe 60ff 883e 391f c73e bc68 ec3d
00000080: 9a07 393e 4674 4cbd ef03 febc 6bea 703e
00000090: 2106 54be ff19 1abe e84f ccbe 27c9 f7bd
000000a0: b51c 16bb bc55 87be 9118 743e 9c2c adbe
000000b0: 73cb 7e3e 05ea 203f 46b8 213f 1d15 253e
000000c0: 14ba ce3e b1ab c23c 60ea 3d3d 1b75 093e
000000d0: 6cf2 413e 041d 293f d9f1 a53e 6239 1b3f
000000e0: 7544 c4be 1abe ec3e 55c4 68bd 0ad0 ccbd
000000f0: 0b48 2dbd 6cf0 d8bd 226e 6a3c bc70 04be
00000100: 52b7 d8bd 8b3f 6f3e a304 4d3e 0a2a 44be
00000110: d3aa 9f3d 0034 953e c054 e33e afe1 103f
00000120: 43cb a7be 2ec9 733d e7dd 3d3c 218e 813d
00000130: fe6b 0bbe dc54 8fbe 3d41 7bbe cf53 a03d
00000140: 390f 8bbe 58f1 d4be 1322 cbbe 755a febd
00000150: 2611 cc3d 95f3 b4be 0c3d e1be a9e3 b13d
00000160: a75e c0be fd99 aabe 1705 79bd d00d afbd
00000170: 0455 17be 7b50 53bd 1284 4cbd 3d10 8b3e
00000180: d541 e1be fa83 89be a8be 573e 09bb 5e3e
00000190: b862 953e 3c9f 193e 9092 543d e9cf 91be
000001a0: 5437 91be e2c1 acbe c825 ba3c 4e1e 9abe
000001b0: 5f96 a6bd 389b 8e3d 9c8c 7cbe 0592 79be
000001c0: 1cf8 97be 111a d83e f977 b53e 97f9 d2be
000001d0: 8761 ab3d 4378 383f f2c3 6f3f 84a5 2d3d
000001e0: b15b 3dbe 20e9 81be 214e b5bd 9b7f 5c3f
000001f0: d320 413e be2b 03bf 58e5 35bf 1dc4 d2be
00000200: 660f 90be 851b 0cbe 3bf3 883e bba6 babd
00000210: fc23 e4bd 5751 47be a93c 32bd 9075 6f3d
00000220: 96b9 3c3e 16ba 79be 7043 53bd 61e6 203e
00000230: 5901 f9be 4a14 eb3d ec89 4c3e 091d 5b3d
00000240: b5f7 90be 62df d6bc 4fa2 b4be ea65 57be
00000250: 99b8 60bd 4060 6bbe b77e cfbe 5cb0 febb
00000260: caf9 8d3d 4d9b 423e 87a7 1ebe e7db b2bc
00000270: 9b56 1d3f 960c 37bc db35 5e3e c5da f43e
00000280: d6c3 d53d 050f 2fbc 1d02 a33e 0d71 583e
00000290: 5897 a9be e984 383e 686e b13e 4e32 7a3e
000002a0: ff3d e03d 832b d63b 9675 8bbe cada da3e
000002b0: a60b 89be 98b4 b9be 4172 a03e 1967 cabd
000002c0: ee05 f33e 26e8 1c3f a8aa 013f 732f 063e
000002d0: 3db9 403d f033 8b3e 1ae9 2d3f ef6b 9fbe
000002e0: a04b e7be 2828 bcbe 1d9d 8a3e c1c8 b6bc
000002f0: f3f4 9f3d f6c8 863e fc40 e0be 4b9f 85be
00000300: 70e3 193e dc80 b73e f09e 813d 2127 183e
00000310: 21dd 6a3d 6bef 5bbe 2f72 abbe ed43 93be
00000320: 8935 a7be 576d 1cbe 590d f93d 168b 26bd
00000330: 23ef 2b3e 5d82 b4be 80eb ee3d a941 cbbe
00000340: d4c8 d8bd 3f59 b13d 53c0 41be 8320 f4bd
00000350: d845 1c3d 5efc c8be 069c 2abb e7eb 3e3d
00000360: 4345 53bd a3df fc3c 3955 84be b948 c4be
00000370: f028 05be 8f39 7f3e 82fe 53be 4a02 c33e
00000380: b241 6ebe 3f87 d33e a939 093c e5f9 7f3d
00000390: 9c53 9f3e 555f dc3c 0d5d 363e 2880 02bf
000003a0: f476 00bf 86d4 81be 5530 e6be ac16 03be
000003b0: df3d 96be e387 8ebe ca26 08bd a7a8 313e
000003c0: 221b 2c3e 03b5 b6be e334 f93e bf76 2abe
000003d0: e3b3 5b3d 100e f63e 482e 8e3e 9ce5 49be
000003e0: 9e6d 1f3e ccf0 6f3e e6ac 0b3e 51a4 0f3e
000003f0: a2c8 59be b54e f43d f655 943e 33db f1bd
-0.14424798 -0.21935917 -0.45256606 0.43510726 0.29581773 0.007103783 0.06834439 -0.39588696
-0.03149099 0.09852473 0.3053418 -0.5247942 -0.063281655 0.27247304 0.13858394 0.3415775
-0.26448914 -0.54696167 0.3725609 0.32658055 0.051986143 0.05518583 -0.43888733 -0.1147676
0.15081808 0.036761727 0.26430804 -0.0071199713 -0.18592478 0.26757336 0.38891008 0.11543414
0.18069306 -0.049915574 -0.031007735 0.23526923 -0.20705463 -0.15048979 -0.39904714 -0.12098914
-0.0022905294 -0.26432598 0.23837496 -0.33823097 0.24882297 0.62857085 0.63171804 0.16121335
0.4037634 0.02376351 0.046366096 0.13423578 0.18940133 0.660599 0.32411078 0.60634434
-0.3833348 0.46238786 -0.05682786 -0.10000618 -0.042305034 -0.10592732 0.014308484 -0.1293363
-0.105818406 0.23364083 0.200213 -0.19156662 0.07796254 0.29141235 0.44400597 0.56594366
-0.32772264 0.05951803 0.01158855 0.06325937 -0.13615415 -0.2799443 -0.24536605 0.07828485
-0.2716005 -0.4159038 -0.39674434 -0.12419597 0.09964208 -0.35342088 -0.43991888 0.08686001
-0.37572214 -0.3332061 -0.06079587 -0.085475564 -0.14778525 -0.051590424 -0.04993064 0.27160826
-0.43995538 -0.26858503 0.21068823 0.21751036 0.2917688 0.1500215 0.051897585 -0.28478935
-0.28362525 -0.3374167 0.022723094 -0.30101246 -0.0813415 0.069631994 -0.24663013 -0.24372108
-0.2968148 0.42207387 0.35443094 -0.41206047 0.08368211 0.72058505 0.93658364 0.042394176
-0.18492009 -0.25373173 -0.088527925 0.8613221 0.18860178 -0.5123862 -0.71053076 -0.41165248
-0.28136748 -0.13682373 0.2674807 -0.091138326 -0.11139676 -0.19464622 -0.04351488 0.058461726
0.1843017 -0.24387392 -0.051577985 0.15712883 -0.4863384 0.11478479 0.19974488 0.053494487
-0.28313985 -0.026229564 -0.35280082 -0.21034971 -0.054863546 -0.22985935 -0.40526363 -0.0077724885
0.06932409 0.19004555 -0.15493594 -0.021833373 0.61460274 -0.011172434 0.21700232 0.47823158
0.10437743 -0.010684733 0.3183755 0.21136875 -0.3312328 0.18019451 0.34654546 0.24433252
0.10949325 0.0065359487 -0.27238148 0.42745048 -0.267667 -0.36270595 0.3133717 -0.098829456
0.47465461 0.6129173 0.50651026 0.13104038 0.047051657 0.27188063 0.6793381 -0.31137034
-0.45174885 -0.36749387 0.27072993 -0.022312524 0.07810392 0.26325196 -0.4379958 -0.26098093
0.15028167 0.358405 0.06329143 0.14858676 0.05733979 -0.2147805 -0.33485553 -0.2876276
-0.32658032 -0.15276085 0.12160749 -0.040659986 0.16790442 -0.3525571 0.11666012 -0.39698532
-0.1058518 0.086596005 -0.18921022 -0.119202636 0.038152546 -0.3925504 -0.0026032939 0.046611693
-0.051579725 0.030868357 -0.2584627 -0.38336733 -0.13003898 0.249243 -0.20702556 0.38087684
-0.23267248 0.41314122 0.008375564 0.062494177 0.31118476 0.026900927 0.17808934 -0.509768
-0.5018151 -0.25357455 -0.4495875 -0.12801617 -0.2934408 -0.27838048 -0.033240117 0.17349492
0.16807225 -0.35684976 0.48673162 -0.1664686 0.05363835 0.48057604 0.27769685 -0.19716495
0.1556916 0.234317 0.13640174 0.14027525 -0.21267942 0.11929075 0.28971833 -0.11809387

conv1.bias f4 [16]
00000000: 9d53 c83d 11c3 d63c d45e fa3d 0084 893d
00000010: c1f6 cebc 2fb2 f93d 435c d33d 3aff 563e
00000020: 581f 983d fdc4 113e a9ba 723d 7ef4 d93d
00000030: 8967 d23d aa78 b93d bf4a 363d 1e3c 773d
0.09781573 0.026216062 0.12225118 0.0671463 -0.025264146 0.12192189 0.10320332 0.20995799
0.07427853 0.14235301 0.059260044 0.10642336 0.10273654 0.09056218 0.044504877 0.060360067

conv2.weight f4 [11, 16, 32]
00000000: bcaa 02be 9e16 3f3e 85f2 acbc 55ed 42be
00000010: f098 c1bd 2323 93bd d0f8 a5be 848b 8e3e
00000020: 443c 1a3e b117 9ebe 8573 cb3d ff84 b63c
00000030: 6955 86be 2df4 b23e 8f79 abbe 6961 8ebc
00000040: 6357 aa3d 121b ad3e 7ae3 6e3e d421 333e
00000050: 02eb 9c3e 8b3c e43d 097e aebe 8932 e3bc
00000060: a6b8 383c 531d 4a3e 8893 8e3e d08d a0be
00000070: 8878 883e 100b 43bd 7b84 b4be 7610 2fbe
00000080: da77 5bbe 6655 aebe 810b ab3e fc22 8e3e
00000090: c4e1 9ebe 4aff eb3d 1213 803e dc4c 45bd
000000a0: 903b a23b 6e26 a9be 35a3 d33d e5d1 a9be
000000b0: eecb 2d3e 4301 adbe be2f bf3d 2268 b43e
000000c0: d8f7 fcbd 1c88 2e3e 9167 a0bd eb74 a6be
000000d0: 6022 8c3d 8634 8b3d 121e c23d 21b6 8d3e
000000e0: e477 aa3c ea3a bdbc 56af f9bd 92a9 80be
000000f0: 9f3e 9b3e 30e8 6f3e 0b7e fcba 91f4 75be
00000100: 5cc3 9c3d d2f6 4bbe 9535 293e 96ba 373e
00000110: ad2b a83e 57a7 053e 3812 8dbe 3e35 443e
00000120: 4339 3c3d c1a1 193e f908 4a3d d408 5bbe
00000130: c9b0 883e 4391 2dbe e465 2c3d 565f 333c
00000140: 8cb1 423e aeac 97be 78b6 3fbe 37a5 e0bd
00000150: 8db5 5f3e 81b6 c9bc 8918 cdbd af9c 193c
00000160: b6d1 ab3e 8de7 8ebe 0e89 893d 0e90 dabd
00000170: 21cc a23e 590c f93d 6ba6 b03e f560 82be
00000180: 3100 30be 77a1 56be 265c 5e3e b281 273d
00000190: 587f 2bbe 4336 4e3e bc78 c23d 3023 ff3d
000001a0: c3ef 403e f63e d53d 3934 9bbe f819 c93b
000001b0: 34ae 3f3c 8cfa 633e ceb2 903d 4c00 373e
000001c0: d79e d13d 0ca1 b4bd b54b 4e3e 773a 943e
000001d0: 80cc 6d3d de77 8d3d 8763 9bbd b8bc 33be
000001e0: 5b7c 173e 7848 a2bc 3db9 ab3e cfe8 75be
000001f0: 888b 313e 4534 ea3d fcd5 993e bbf3 283e
00000200: 684f 80bd cb78 90be c027 8bbd d2c5 98be
00000210: e67d 22be da9e babd 6eb6 8f3e c5cc 14bd
00000220: 38b4 f93d 7872 813e 4c64 a0bd c0c5 49be
00000230: f091 83be 5b50 ffbd 6a2f 38be e2eb a5bd
00000240: a354 b43d ebb7 73bd 28d4 f83d f114 9f3e
00000250: 71ca 863e 97ae 97bd f7f1 abbe 408b 8b3e
00000260: 2a7e a2be 6220 6ebe cb03 a0be d547 6dbd
00000270: eb02 8dbe b05a 76be 9447 aa3e 94ff bdbc
00000280: e292 9fbc 5435 adbe d7e0 ebbd e258 c83d
00000290: 78a6 76bd 6ce4 9cbe 2f34 61bd fa70 6f3e
000002a0: a426 ae3d 47df 403e 7a6b 253d d8f5 193e
000002b0: 3762 b23d 1038 7a3e ff72 88be 3c21 633e
000002c0: ec9b a7be 54c9 d63d 9a9e 72be 6122 a5bb
000002d0: 3462 c53d a275 613e 320e b23e ffd6 aa3c
000002e0: 68a2 2ebe 5592 943e e451 8cbe 9585 9fbe
000002f0: 2d5f 2cbc 5bdd 2d3e d0da a33c 86cc 98be
00000300: 6012 0dbe a758 55be 2414 af3c c70f db3d
00000310: 8fc8 64be d8b8 a4bd c174 acbe 324d f2bd
00000320: e477 6b3e e042 873e a028 5dba 0142 633d
00000330: f5eb a4be 932d 6abe 427e 603e 7261 79be
00000340: 6f66 32bd f823 b23e 3ea5 b53d ea9e d8bd
00000350: b196 95be 9257 b13d 7668 c03d b5b3 91be
00000360: 8168 853e 5b7c cbbd c9e6 50be 17cd 5ebe
00000370: 3e4e 03be 1a4f 64bd 87ce 99be 0ed0 bbbd
00000380: 4f98 cb3c 4e2e 4cbd 72d4 b2be fb5c 423e
00000390: fbd8 84be 0d6a 7f3e d186 393e 1418 9e3e
000003a0: 961d b0be c5b0 af3e bfb4 d43d 5495 e43c
000003b0: a0b5 1ebe a3f8 f0bd 59c8 babd 0134 a2be
000003c0: 38e4 a3be 1f78 26be 0fba 5d3e 19fa 67bd
000003d0: 79fe 6f3e 3fed c8bc 9df9 ef3c 1ae8 10bd
000003e0: 3834 41bd a64d a23e a2ab 123e 259c a4be
000003f0: 49e9 14be b958 b3be a2df 9c3e c60f 4d3e
-0.12760442 0.18660972 -0.021111736 -0.19035847 -0.09452999 -0.07184436 -0.3241639 0.27840817
0.15062052 -0.3087745 0.09934143 0.022280214 -0.26237038 0.34951916 -0.3349118 -0.017380433
0.08317449 0.33809716 0.23328963 0.17493373 0.30648047 0.1114436 -0.34080532 -0.027734058
0.011274492 0.19737749 0.27846932 -0.31358194 0.26654458 -0.047617972 -0.35257325 -0.17096123
-0.21432438 -0.3404953 0.33407214 0.27761066 -0.3103162 0.11523302 0.2501455 -0.048169002
0.004950948 -0.33037132 0.10333864 -0.3316795 0.16972324 -0.33790025 0.09335278 0.35235697
-0.1235196 0.17044109 -0.07832254 -0.32511076 0.06842494 0.067971274 0.09478392 0.27678016
0.020809121 -0.023099381 -0.12191646 -0.25129372 0.30321214 0.23428416 -0.0019263638 -0.24019076
0.07654449 -0.19918373 0.16524346 0.1794227 0.32845822 0.13052116 -0.27552962 0.19160935
0.045953047 0.1500311 0.049324963 -0.21390086 0.26697376 -0.16949944 0.042089358 0.010948023
0.19013041 -0.29623932 -0.1872195 -0.10969012 0.218466 -0.024623157 -0.10014445 0.009375735
0.33558434 -0.27911034 0.06715594 -0.106720075 0.31796363 0.12160558 0.34501967 -0.25464597
-0.17187573 -0.20960031 0.2171484 0.04089517 -0.16747797 0.20137887 0.094956845 0.12457883
0.18841462 0.104123995 -0.3031328 0.006137129 0.011699248 0.22263545 0.07065354 0.17871207
0.102353744 -0.0881978 0.20146067 0.28950855 0.058056355 0.069076285 -0.07587343 -0.17552459
0.14793532 -0.019809946 0.33539763 -0.2401459 0.17338383 0.11435751 0.3004607 0.16499226
-0.062651455 -0.28217158 -0.06794691 -0.29838425 -0.15868339 -0.0911233 0.2806887 -0.036328096
0.12192577 0.25282645 -0.0783163 -0.19704342 -0.2569728 -0.124664985 -0.17986837 -0.08101632
0.08805206 -0.05950157 0.121498406 0.31070665 0.26326326 -0.07406347 -0.33583042 0.27254677
-0.3173688 -0.2325454 -0.31252894 -0.057929832 -0.2754129 -0.24058032 0.33257735 -0.023193158
-0.019479219 -0.3382975 -0.11517494 0.09782578 -0.06021735 -0.30643022 -0.054981407 0.23382941
0.08503464 0.18835174 0.0403857 0.15035188 0.08710139 0.24435449 -0.26650235 0.22180647
-0.32736146 0.10487619 -0.23693314 -0.0050394987 0.096378714 0.2201753 0.34776455 0.020854471
-0.1705414 0.29017892 -0.27406228 -0.31156603 -0.010520739 0.16978972 0.020001799 -0.2984354
-0.13776541 -0.208346 0.021371908 0.10696369 -0.22342132 -0.08043069 -0.33682826 -0.1183113
0.22994953 0.2641821 -0.00084365346 0.055482868 -0.3221127 -0.22868948 0.21923164 -0.24353579
-0.04355472 0.34793067 0.08869408 -0.105771855 -0.2921653 0.08659281 0.09394924 -0.28457418
0.26056293 -0.09935828 -0.20400538 -0.21757923 -0.12822816 -0.0557395 -0.3004038 -0.09170543
0.0248529 -0.049848847 -0.34927708 0.18980782 -0.25946793 0.24942799 0.18117835 0.30877745
-0.34397572 0.34314552 0.10386037 0.027903236 -0.15498972 -0.11766174 -0.091202445 -0.316803
-0.32010055 -0.1625676 0.21653007 -0.056634996 0.23436917 -0.02452719 0.02929383 -0.0353776
-0.04716894 0.31699866 0.14323285 -0.3215038 -0.14542116 -0.35028628 0.30639368 0.20025548

conv2.root f4 [16, 32]
00000000: 4819 893e f7f0 dabd 5503 42be 32a7 22be
00000010: ef49 34be 52d5 e03e bf06 593e 9a69 403e
00000020: 9a12 533d 8383 cabe 2cea 663e 9aa9 cd3c
00000030: 3e43 a03e b7d6 de3e f743 b13e 89c3 fc3c
00000040: 403a e6be 653f 693e a26a 0f3e 564a 9ebe
00000050: c7ff c03e cd0b d23e 1116 833e 9e7c 663e
00000060: 51f9 913e e2ae 843e c794 cf3e 8996 8f3c
00000070: 775b b5be a32b 683e caac 963e 3fa7 843e
00000080: 8b8b 893c cd1a a03e bcfc 8b3c d462 bfbe
00000090: bbb8 3b3e 0c26 b73e 9cd6 973e 504f e73e
000000a0: aaf2 5bbe 86f6 183e c713 b8bd 7ba6 913e
000000b0: d06d 7b3e 7715 94be d6f1 e13e 0a01 043e
000000c0: ca31 b13e 2bbe 003f 122b 7d3e 5f3c c9be
000000d0: 001b b2be 19cf fdbe d4f3 21bc 74e5 f9bd
000000e0: 6831 c93e cf19 7a3e 3381 8c3e 183c 31bd
000000f0: 64a7 743e cdd4 033c d2ce 0cbe cb5f 833e
00000100: b7d5 6ebe 88ae ce3e 1630 a1be 405d e6be
00000110: f3d6 67bc 1323 873d bac4 3cbb 8827 bd3c
00000120: 5399 713e d1e2 d2be ad25 6d3e c42f 45bd
00000130: 1d1c e03e 9763 d83e e046 063e 6f59 2e3e
00000140: 49a0 e1be 42cd 513d 8e38 be3e d959 94be
00000150: 94ba 613d 0203 143d 8aeb 06bc 8fcf 15be
00000160: e783 7fbe 9055 903e 934c c93d ae19 1bbe
00000170: f5a0 fd3d 72af eabe cb5f 32bd aee7 5bbd
00000180: 182c 2cbe 2c11 ba3d 069b a7be 5441 e5be
00000190: baa9 86be b2c8 ea3d 6c15 8cbd 67bf 31be
000001a0: 71f7 5bbe 749f b2be bd04 18be 9238 503d
000001b0: 565b 40be 3662 0ebe 6e98 8abe b251 ccbe
000001c0: b51b 11bd cc32 4fbe 5331 a23e 23a3 78be
000001d0: 44ae 043d 5e8a 043e 4ec6 8ebe 1d52 85be
000001e0: c9b2 2e3e 86ce 68bd b63a 4f3e 6cbd ab3d
000001f0: 75ec d9be bb0a 46be c40d 56be ad35 733e
00000200: 8138 25be f60e aa3e 43c9 cbbd f265 c6be
00000210: 7b4a e43d bb61 1bbd 9c20 48be 622e 0ebe
00000220: d25c d0bd 8bb8 83be 8a42 00be 65b6 633e
00000230: f40a c33d c496 3f3e e401 4f3e 2679 32be
00000240: f0c2 c4bd 5024 96be 514a 01be 9c0a 89be
00000250: aa18 8abe 291c 853e d6cc 953d d0e6 b7be
00000260: bf24 87be ef38 9f3d 2416 cebe decd 093e
00000270: 76b7 a8be 09d6 21bf 1cbf 83be 63ce 9cbe
00000280: 4309 c13d 2250 063f 2d58 093e bfce edbd
00000290: 02be f23e 9cd4 3dbe fe7a f6bd 8dad 653d
000002a0: 59bb 2dbe c340 b3be 93bb 033e 496a bcbd
000002b0: 0b77 a9be 44a3 debe 3955 003f 9641 38bd
000002c0: 36f1 3b3d 044e 2fbd dae8 a7bd 925c 96be
000002d0: 66f5 a1be 1784 41bd 89f0 82bd ee94 26be
000002e0: 5053 263d daf8 debd 3909 c33e ab4b 353e
000002f0: 8447 e9bd 93de 56be 4d32 4bbe 6b9c 4fbd
00000300: dbbe 2cbd 3f1b 3a3e 07ac 92be e675 8ebe
00000310: 3f84 8b3c d6a3 873e 907e a1be c588 043f
00000320: 781d 87be b3ca dcbd 1dd1 313d 3439 8cbb
00000330: 2fcc 51be b522 84be 1cdc 5c3e 77c8 62be
00000340: 7202 bbbe f97c ec3d 5d49 3b3a 046d 9cbd
00000350: 9160 dbbd b0f9 a5be 9518 a03e 0dd7 93be
00000360: 1442 e23e 0804 f73e 8418 9f3e e074 38be
00000370: 00d2 1ebe 5a28 e1be 1e1f 503e 5262 8a3d
00000380: ce95 503d 7603 c33d 70df 7abe 9ba7 fcbd
00000390: b29b 943d de0e 853d e18b 70be 4ee5 49be
000003a0: b154 a03e b296 7d3e 6073 d2be 861e 793e
000003b0: 6e36 65be 2962 8e3d 750e c23d 1b73 983e
000003c0: 0553 b03e f746 88bc 7b31 b4bd 2da9 073e
000003d0: 7b7c 3c3e 7098 debd 65f3 93be cf5c 933e
000003e0: fe98 c33d 3feb 203d 25fa d93d d8fb 90be
000003f0: cbf6 5e3d e09f cc3d 2955 113d 0e21 47bd
0.267771 -0.10690492 -0.18946584 -0.15884092 -0.17606328 0.4391275 0.2119398 0.18790284
0.05153141 -0.3955346 0.22550267 0.025105286 0.31301302 0.4352319 0.34622166 0.030854957
-0.44966316 0.2277809 0.14005521 -0.3091609 0.37695143 0.41024628 0.25602773 0.22508475
0.28510526 0.25914675 0.40543196 0.017527835 -0.35421345 0.22672896 0.29428703 0.2590885
0.016790172 0.31270447 0.017088287 -0.37380087 0.18332188 0.35771215 0.2965592 0.45177698
-0.21479288 0.14937791 -0.08988147 0.28447327 0.24553609 -0.28922626 0.4412982 0.12891021
0.346083 0.50290173 0.24723461 -0.39303872 -0.34786224 -0.49572065 -0.009884793 -0.12201968
0.39295506 0.24423908 0.2744232 -0.0432702 0.2389198 0.008046341 -0.1375077 0.25659022
-0.23323713 0.40367532 -0.31482 -0.4499302 -0.014150369 0.06598487 -0.0028803782 0.023090139
0.23593645 -0.41188672 0.23158903 -0.048141256 0.4377145 0.4226348 0.13112974 0.17026304
-0.440676 0.05122114 0.37152523 -0.28974798 0.055109575 0.03613568 -0.008234868 -0.14629959
-0.2495266 0.2819028 0.098290585 -0.15146515 0.12384216 -0.4583698 -0.043548387 -0.053687744
-0.16813695 0.090853065 -0.3273546 -0.44776404 -0.26301366 0.11464061 -0.068400234 -0.1735817
-0.2148111 -0.34887278 -0.14845558 0.0508352 -0.18784842 -0.13904652 -0.2706942 -0.3990608
-0.035426814 -0.20234221 0.31678256 -0.24280982 0.032392755 0.12943408 -0.2788567 -0.2603921
0.17060389 -0.05683758 0.2023724 0.08385739 -0.42563215 -0.19340031 -0.20903689 0.23750944
-0.16134836 0.3321454 -0.09950497 -0.38749653 0.111470185 -0.037935 -0.1954369 -0.13884881
-0.10173954 -0.25726733 -0.12525383 0.22237547 0.095235735 0.18709856 0.20215565 -0.17429027
-0.09607494 -0.2932458 -0.12626006 -0.26765907 -0.26971942 0.25998047 0.0731446 -0.35918283
-0.26395223 0.07774531 -0.40251267 0.13457438 -0.3295247 -0.63217217 -0.25731742 -0.3062621
0.09425595 0.5246602 0.13412543 -0.11611699 0.4741059 -0.18538135 -0.12035178 0.056073714
-0.16965999 -0.35010347 0.12864523 -0.0919996 -0.33098635 -0.43483937 0.5013004 -0.044984423
0.045884334 -0.04279901 -0.0819871 -0.293675 -0.31632537 -0.04724511 -0.06393535 -0.1626775
0.040606797 -0.108873084 0.38092974 0.17704646 -0.11390594 -0.20983343 -0.19843407 -0.05068628
-0.0421742 0.18174456 -0.2864687 -0.27824324 0.017030833 0.26492184 -0.31541872 0.51771194
-0.2638967 -0.10780849 0.043412317 -0.00427928 -0.20488046 -0.2580773 0.2156834 -0.22146784
-0.36525303 0.11547274 0.0007144416 -0.076379806 -0.10711778 -0.3241706 0.31268755 -0.28875008
0.4419104 0.48245263 0.3107339 -0.18013334 -0.15509796 -0.43976098 0.2032437 0.06757034
0.050924115 0.095221445 -0.24499297 -0.12336656 0.07256259 0.06496976 -0.2349086 -0.19716379
0.31314614 0.24764517 -0.4110365 0.2432805 -0.22384045 0.06952316 0.09475414 0.29775319
0.3443834 -0.016635401 -0.087985 0.13248129 0.1840686 -0.10868919 -0.28896633 0.28781745
0.09550665 0.03928685 0.106434144 -0.28317142 0.05443458 0.09991431 0.035481606 -0.048615508

conv2.bias f4 [32]
00000000: f8c8 5abd f144 8e3d f33e 613b 3d09 933c
00000010: 7d5c ecba 234e 533c cc91 c93c 28d4 f83c
00000020: 7575 153d 34b5 943c 738d d73c a6e8 a03c
00000030: cf43 cd3c b1c1 e43c fb40 99bc dbf0 563d
00000040: 8293 87ba 2816 28bd 029c 643d 8005 a439
00000050: cfa5 b53c d7bc 8f3c 02a5 e33b 470c 3c3d
00000060: 384c 8cbb 0f12 e03b de12 a83c e3ea 4dbd
00000070: 53ab 7abd a091 033b 4a72 043d 8576 1cbc
-0.053414315 0.06946743 0.0034369796 0.017948741 -0.0018032935 0.012897047 0.024605654 0.030374601
0.03648897 0.01815281 0.026312565 0.019642185 0.025056748 0.02792439 -0.018707743 0.05247579
-0.0010343643 -0.041036755 0.055812843 0.00031284615 0.02217379 0.0175461 0.0069471607 0.045910146
-0.004281547 0.0068380903 0.02051681 -0.050272834 -0.061198544 0.0020075813 0.032335557 -0.009549742

fc1.weight f4 [16, 32]
00000000: a1d3 ab3c 6923 87be 699f d73d a593 1c3e
00000010: 91f0 443d b13a cabd 6216 2ebe 00e7 7b3e
00000020: fe76 6bbd 0532 26be 9ddd 0dbe d491 223e
00000030: cf0f 88bd efdd dfbc 7ece 783b 7442 123e
00000040: 2106 9abe 5ac3 96be d62b 863e ff3a 3abd
00000050: 80c2 433d c30b de3d 40c6 20be bfe4 1e3e
00000060: da30 403d c24e 94bd 3c76 0abb 6fbd d9bc
00000070: 2894 f3bb e2d0 963e 8990 693d 071c d73d
00000080: 8212 2ebd 213e c73d 45dc cbbd c4c8 ef3d
00000090: 6a0b 29be 9484 423d 6c7d b5bc 9178 34be
000000a0: a4d6 bdbd 1624 24be faac 523d 8a42 2fbe
000000b0: b7a4 dcbd f75b 983c aeb0 19be 0270 d33d
000000c0: 61c6 bf3d 1c04 c6bd b7c6 a1bd 60d6 14be
000000d0: e325 c1bd 3f3b 34bc b35d 303e 02f8 febd
000000e0: e32a d5bd dc9b f03d 5ce8 7b3d 197a 503d
000000f0: df71 2f3e a0c0 1bbd 3d46 1d3e 0235 89bd
00000100: 24f5 bebd 2422 883e d108 06bd 02f7 54be
00000110: 6d58 743d 52e6 ae3e 493f 083e e568 86bd
00000120: 35db 35be 72b4 1d3e fbea 693e 657b 103e
00000130: eee4 a83e f863 d83d 3da1 923c 9d37 013d
00000140: e91a f53d 2a89 763e d8cd 9ebd 66ac 51bd
00000150: ccbb 8f3c b78a 293e 1e4e e23e 5021 0ebe
00000160: d5e9 b1bd d63e b23e 4ef6 763e a03b a63c
00000170: 9c21 6abd f632 74be 99de e2bd 8fb6 2a3e
00000180: 1de0 b8bc c4ab 3cbd 8186 04be 57e5 92bd
00000190: ade6 05be 6d34 023e e11f d8bc d622 14be
000001a0: 3ae0 663b 6c31 763d ed62 ec3d ec30 cc3d
000001b0: 0ed9 60bd 9196 2e3e a006 923d 76af 11be
000001c0: edf2 2d3e 88f5 343e dc24 e33d 44db c4bd
000001d0: 18eb e9bd 8521 05be b6a3 123e dce6 a4bd
000001e0: 440b c2bd dcff c6bd ad0d bcbd 26a6 153e
000001f0: 4c84 283d 248d 2bbd 5147 01be ee65 79bd
00000200: 4c63 e13d cb7a 73be bc31 7b3d 49b2 453e
00000210: 8140 b7bd 431b 66be 4642 5e3e e546 b7bd
00000220: d95e a73e f678 413e 7d76 13be 4dfc 663e
00000230: 8e1c 95bd e446 f93c 833e b23c 8fba 883e
00000240: 6b03 1a3e 326f 48be e7f3 203e dbd5 823e
00000250: 14a0 ac3e f732 793e 0bbf 333d 376f 6f3e
00000260: 2dc7 0d3c a701 9cbe 068d a4be 9dec 26bc
00000270: be7e 0b3c bc1b cd3e 8fee 7c3e 94c7 4cbe
00000280: 2b7e e2bd 3143 a1bd cae1 02be 5903 d9bc
00000290: ce76 723d a448 98bd f89f 09bd 4718 083e
000002a0: 76ec 223e ce52 cdbd a2a3 053e 92f6 b13d
000002b0: eddc b5bd a4dc 52bd b3ec 643d 2b30 01be
000002c0: d24c 44bd a110 0dbe acaf 31be f6e2 00be
000002d0: f38a acbd f800 c43d 561b 273e 6ac1 1cbe
000002e0: 29df 84bd 682e 303d eed8 32be 568f 47bd
000002f0: 4cda 22be 3e3b 0e3e 9db4 32bd eb6e b73c
00000300: cbd8 b53d fefa 883d ec84 dd3d 5ddd d33d
00000310: 6c29 913e 6972 ccbe 3d49 a9bd 5532 943e
00000320: f9aa 673e cb38 603e 92f3 20be 7ff3 ad3d
00000330: 318a a1be 5b23 35be d3de 103e 7c31 7b3e
00000340: b525 a43e 5387 3c3b 3e92 afbe adb3 003d
00000350: 32c9 67be 899b 04be 1e4c cdbe 5e8a e03d
00000360: 0e55 973d 161f 27be 999b b33e b09b 97bc
00000370: aa5c 4e3c a0f3 223d 5f48 07bd 9dba 80bd
00000380: a58b 27be 9475 97be 88d5 11be 569c 01be
00000390: fce3 953c aaee b23e 1021 133e f389 35be
000003a0: a0b6 87bd 3e82 0abe 5483 0d3f 1eac 02be
000003b0: 7647 c23e 3216 333e 2e52 6f3d c9fc 0dbd
000003c0: 41e1 0e3d 4107 c1bb 0dc8 283e d381 afbc
000003d0: a74c 8abc f8c8 2039 3204 803e 3d1d 81bc
000003e0: 70ac 43be 600f fe3d 25b3 fd3c e45e b43d
000003f0: 7744 a43c 3b30 833e bd01 543e 7da7 553e
0.020974936 -0.26394203 0.10528452 0.15290697 0.048080985 -0.09874476 -0.17000726 0.24599838
-0.057486527 -0.16230018 -0.1385407 0.15875942 -0.0664364 -0.027327506 0.0037964876 0.14283162
-0.300828 -0.29445916 0.2620532 -0.04546642 0.04779291 0.10842087 -0.15700626 0.15516947
0.04692159 -0.07241584 -0.0021127602 -0.026579587 -0.007433433 0.2945624 0.057022605 0.10503393
-0.04249812 0.09728647 -0.099541225 0.11708215 -0.1650826 0.047489718 -0.022154532 -0.17624117
-0.09269455 -0.1602939 0.051434495 -0.17115226 -0.10773604 0.01859854 -0.15008804 0.10324098
0.0936401 -0.096687526 -0.0789923 -0.14534903 -0.094310544 -0.0110004535 0.17223243 -0.124496475
-0.104085706 0.11748478 0.061500892 0.05089769 0.17133282 -0.0380255 0.15358825 -0.066995636
-0.093241006 0.26588547 -0.03272325 -0.20797351 0.059654642 0.34160095 0.13305391 -0.06562976
-0.17759402 0.15400866 0.22843544 0.14109571 0.3298716 0.105659425 0.01789915 0.031547178
0.11968023 0.24075761 -0.07754105 -0.051189803 0.017545603 0.16556822 0.44200224 -0.13879895
-0.08687178 0.34813565 0.24117395 0.020292103 -0.05716096 -0.23847565 -0.110776134 0.16671203
-0.022567803 -0.046062246 -0.12941934 -0.07172649 -0.13076277 0.12715311 -0.026382389 -0.14466414
0.0035228864 0.060105726 0.11542306 0.099702686 -0.0548945 0.17049624 0.0713017 -0.1422709
0.169872 0.17671788 0.11091015 -0.09612134 -0.11421794 -0.13001068 0.14320263 -0.080518454
-0.09474805 -0.0971677 -0.09182296 0.14614162 0.041141793 -0.04188265 -0.12624861 -0.060888223
0.110052675 -0.2377731 0.061326727 0.19306292 -0.0894785 -0.22471337 0.21704969 -0.08949069
0.3268955 0.18893799 -0.14400668 0.22557183 -0.07280837 0.030429311 0.021758324 0.26704833
0.15040366 -0.19573668 0.15718041 0.25553784 0.3371588 0.24335848 0.043883365 0.23382269
0.008653444 -0.3047001 -0.32138842 -0.010188249 0.008514104 0.40060222 0.24700378 -0.19998008
-0.11059221 -0.07874144 -0.12781444 -0.026490854 0.059195332 -0.0743573 -0.033599824 0.13290511
0.15910515 -0.10025559 0.13050702 0.08689608 -0.08880029 -0.05147995 0.055889796 -0.12616031
-0.047924824 -0.13775875 -0.1735217 -0.12586579 -0.0842494 0.09570497 0.16319022 -0.15308157
-0.06487877 0.043013006 -0.17465565 -0.04872068 -0.15903586 0.13889787 -0.043629277 0.022391757
0.088792406 0.06688498 0.108163685 0.10344956 0.28351915 -0.39931038 -0.08265922 0.2894465
0.22623815 0.21896665 -0.15717915 0.08493709 -0.31550744 -0.17689268 0.141475 0.24530596
0.32060018 0.0028767183 -0.3429126 0.031421352 -0.22635344 -0.12949957 -0.40097135 0.109638914
0.0738927 -0.16320452 0.3507965 -0.018506855 0.012595335 0.03978312 -0.033028003 -0.06285594
-0.16361864 -0.29581892 -0.14241612 -0.12657294 0.018297188 0.3494771 0.14368081 -0.17728405
-0.0662663 -0.13526246 0.55278516 -0.1276097 0.37945145 0.17488936 0.058427982 -0.034664903
0.034882788 -0.0058907573 0.16482563 -0.02142421 -0.016882254 0.00015333656 0.250032 -0.015761012
-0.19108748 0.12405276 0.030969212 0.088071615 0.020052178 0.25622734 0.20703788 0.20864673

fc1.bias f4 [16]
00000000: 4271 3d3e be42 553c 1812 85bd b579 ba3c
00000010: 65e2 3f3e e75e f5bc 070e cd3d a934 dbbc
00000020: a0ab 68bd a839 193d 20f7 673d ad87 ec3d
00000030: 172e 14be 8d85 a5bb 8431 883d 96aa 123e
0.18500236 0.013016401 -0.06497592 0.022763113 0.18738706 -0.02995248 0.10012441 -0.026758509
-0.0568043 0.0374085 0.05663216 0.115493156 -0.14470707 -0.005051321 0.06650069 0.14322886

fc2.weight f4 [4, 16]
00000000: e775 49be d0f3 723d 0e8c 07be a4d8 48be
00000010: 48a9 973e 8888 35be 7a38 a83e 3b53 d1bd
00000020: defc 443e 59b3 8abd b03b 9a3e e149 fe3d
00000030: e8c0 433e 0a50 55be b23f 6dbe c718 d1be
00000040: 3261 a63e 9815 6a3d 0f39 28bf 00a1 43be
00000050: ed97 093e 303f bfbd 5e66 153e 2e85 27bf
00000060: acbc 35be b076 e43d 7209 1cbf deba 143e
00000070: 4104 943e 4088 bfbc 1b46 8fbe 4169 0a3e
00000080: 2b6f 03bf bc06 7f3e 8f73 6c3e 4c64 cebd
00000090: d681 ddbe 843b 87bd 38b9 1bbe baa1 5abd
000000a0: d8c9 23be 21b6 b0be fe56 873d b9c6 15be
000000b0: e454 30bf d0ad 1dbd b83e 693d f9d7 a13e
000000c0: 908a 743e 800f 2e3e 5528 693d 68aa 2fbd
000000d0: eae0 6d3d 2c58 cf3d 7eb3 2dbf 09e1 da3d
000000e0: d236 7a3e c301 883e 7275 833d e5c9 5c3e
000000f0: 74b0 c1be d49f 3c3e df8b a53b a38a cabe
-0.19673882 0.05931455 -0.1323702 -0.19613892 0.2962134 -0.17727864 0.32855588 -0.10220953
0.19237086 -0.06772489 0.30123663 0.12416435 0.19116557 -0.20831314 -0.23168829 -0.40839216
0.3249603 0.0571495 -0.65712065 -0.19104385 0.13436861 -0.09338224 0.14589831 -0.6543759
-0.17747754 0.1115545 -0.6095191 0.14524409 0.28909495 -0.023380399 -0.27983174 0.13516714
-0.51341504 0.24904913 0.23090957 -0.10077724 -0.4326312 -0.066031486 -0.15207374 -0.05337689
-0.15994966 -0.34513953 0.06608389 -0.14626588 -0.6887953 -0.03849584 0.05694458 0.31610087
0.23880982 0.169981 0.05692323 -0.04288712 0.058075823 0.10124239 -0.6785201 0.10687453
0.24434975 0.26563844 0.06418885 0.21561392 -0.37829936 0.18420345 0.0050520743 -0.39558896

fc2.bias f4 [4]
00000000: 6c23 baba a1b8 82bd 1ae5 03be 4200 113d
-0.001420123 -0.063828714 -0.12880364 0.035400636
